{"format": "layers-model", "generatedBy": "keras v2.8.0", "convertedBy": "TensorFlow.js Converter v4.14.0", "modelTopology": {"keras_version": "2.8.0", "backend": "tensorflow", "model_config": {"class_name": "Sequential", "config": {"name": "sequential", "layers": [{"class_name": "InputLayer", "config": {"batch_input_shape": [null, 224, 224, 3], "dtype": "float32", "sparse": false, "ragged": false, "name": "efficientnetv2-b2_input"}}, {"class_name": "Functional", "config": {"name": "efficientnetv2-b2", "layers": [{"class_name": "InputLayer", "config": {"batch_input_shape": [null, 224, 224, 3], "dtype": "float32", "sparse": false, "ragged": false, "name": "input_1"}, "name": "input_1", "inbound_nodes": []}, {"class_name": "Rescaling", "config": {"name": "rescaling", "trainable": false, "dtype": "float32", "scale": 0.00392156862745098, "offset": 0.0}, "name": "rescaling", "inbound_nodes": [[["input_1", 0, 0, {}]]]}, {"class_name": "Normalization", "config": {"name": "normalization", "trainable": false, "dtype": "float32", "axis": [3], "mean": [0.485, 0.456, 0.406], "variance": [0.052441, 0.050176000000000005, 0.050625]}, "name": "normalization", "inbound_nodes": [[["rescaling", 0, 0, {}]]]}, {"class_name": "Conv2D", "config": {"name": "stem_conv", "trainable": false, "dtype": "float32", "filters": 32, "kernel_size": [3, 3], "strides": [2, 2], "padding": "same", "data_format": "channels_last", "dilation_rate": [1, 1], "groups": 1, "activation": "linear", "use_bias": false, "kernel_initializer": {"class_name": "VarianceScaling", "config": {"scale": 2.0, "mode": "fan_out", "distribution": "truncated_normal", "seed": null}}, "bias_initializer": {"class_name": "Zeros", "config": {}}, "kernel_regularizer": null, "bias_regularizer": null, "activity_regularizer": null, "kernel_constraint": null, "bias_constraint": null}, "name": "stem_conv", "inbound_nodes": [[["normalization", 0, 0, {}]]]}, {"class_name": "BatchNormalization", "config": {"name": "stem_bn", "trainable": false, "dtype": "float32", "axis": [3], "momentum": 0.9, "epsilon": 0.001, "center": true, "scale": true, "beta_initializer": {"class_name": "Zeros", "config": {}}, "gamma_initializer": {"class_name": "Ones", "config": {}}, "moving_mean_initializer": {"class_name": "Zeros", "config": {}}, "moving_variance_initializer": {"class_name": "Ones", "config": {}}, "beta_regularizer": null, "gamma_regularizer": null, "beta_constraint": null, "gamma_constraint": null}, "name": "stem_bn", "inbound_nodes": [[["stem_conv", 0, 0, {}]]]}, {"class_name": "Activation", "config": {"name": "stem_activation", "trainable": false, "dtype": "float32", "activation": "swish"}, "name": "stem_activation", "inbound_nodes": [[["stem_bn", 0, 0, {}]]]}, {"class_name": "Conv2D", "config": {"name": "block1a_project_conv", "trainable": false, "dtype": "float32", "filters": 16, "kernel_size": [3, 3], "strides": [1, 1], "padding": "same", "data_format": "channels_last", "dilation_rate": [1, 1], "groups": 1, "activation": "linear", "use_bias": false, "kernel_initializer": {"class_name": "VarianceScaling", "config": {"scale": 2.0, "mode": "fan_out", "distribution": "truncated_normal", "seed": null}}, "bias_initializer": {"class_name": "Zeros", "config": {}}, "kernel_regularizer": null, "bias_regularizer": null, "activity_regularizer": null, "kernel_constraint": null, "bias_constraint": null}, "name": "block1a_project_conv", "inbound_nodes": [[["stem_activation", 0, 0, {}]]]}, {"class_name": "BatchNormalization", "config": {"name": "block1a_project_bn", "trainable": false, "dtype": "float32", "axis": [3], "momentum": 0.9, "epsilon": 0.001, "center": true, "scale": true, "beta_initializer": {"class_name": "Zeros", "config": {}}, "gamma_initializer": {"class_name": "Ones", "config": {}}, "moving_mean_initializer": {"class_name": "Zeros", "config": {}}, "moving_variance_initializer": {"class_name": "Ones", "config": {}}, "beta_regularizer": null, "gamma_regularizer": null, "beta_constraint": null, "gamma_constraint": null}, "name": "block1a_project_bn", "inbound_nodes": [[["block1a_project_conv", 0, 0, {}]]]}, {"class_name": "Activation", "config": {"name": "block1a_project_activation", "trainable": false, "dtype": "float32", "activation": "swish"}, "name": "block1a_project_activation", "inbound_nodes": [[["block1a_project_bn", 0, 0, {}]]]}, {"class_name": "Conv2D", "config": {"name": "block1b_project_conv", "trainable": false, "dtype": "float32", "filters": 16, "kernel_size": [3, 3], "strides": [1, 1], "padding": "same", "data_format": "channels_last", "dilation_rate": [1, 1], "groups": 1, "activation": "linear", "use_bias": false, "kernel_initializer": {"class_name": "VarianceScaling", "config": {"scale": 2.0, "mode": "fan_out", "distribution": "truncated_normal", "seed": null}}, "bias_initializer": {"class_name": "Zeros", "config": {}}, "kernel_regularizer": null, "bias_regularizer": null, "activity_regularizer": null, "kernel_constraint": null, "bias_constraint": null}, "name": "block1b_project_conv", "inbound_nodes": [[["block1a_project_activation", 0, 0, {}]]]}, {"class_name": "BatchNormalization", "config": {"name": "block1b_project_bn", "trainable": false, "dtype": "float32", "axis": [3], "momentum": 0.9, "epsilon": 0.001, "center": true, "scale": true, "beta_initializer": {"class_name": "Zeros", "config": {}}, "gamma_initializer": {"class_name": "Ones", "config": {}}, "moving_mean_initializer": {"class_name": "Zeros", "config": {}}, "moving_variance_initializer": {"class_name": "Ones", "config": {}}, "beta_regularizer": null, "gamma_regularizer": null, "beta_constraint": null, "gamma_constraint": null}, "name": "block1b_project_bn", "inbound_nodes": [[["block1b_project_conv", 0, 0, {}]]]}, {"class_name": "Activation", "config": {"name": "block1b_project_activation", "trainable": false, "dtype": "float32", "activation": "swish"}, "name": "block1b_project_activation", "inbound_nodes": [[["block1b_project_bn", 0, 0, {}]]]}, {"class_name": "Add", "config": {"name": "block1b_add", "trainable": false, "dtype": "float32"}, "name": "block1b_add", "inbound_nodes": [[["block1b_project_activation", 0, 0, {}], ["block1a_project_activation", 0, 0, {}]]]}, {"class_name": "Conv2D", "config": {"name": "block2a_expand_conv", "trainable": false, "dtype": "float32", "filters": 64, "kernel_size": [3, 3], "strides": [2, 2], "padding": "same", "data_format": "channels_last", "dilation_rate": [1, 1], "groups": 1, "activation": "linear", "use_bias": false, "kernel_initializer": {"class_name": "VarianceScaling", "config": {"scale": 2.0, "mode": "fan_out", "distribution": "truncated_normal", "seed": null}}, "bias_initializer": {"class_name": "Zeros", "config": {}}, "kernel_regularizer": null, "bias_regularizer": null, "activity_regularizer": null, "kernel_constraint": null, "bias_constraint": null}, "name": "block2a_expand_conv", "inbound_nodes": [[["block1b_add", 0, 0, {}]]]}, {"class_name": "BatchNormalization", "config": {"name": "block2a_expand_bn", "trainable": false, "dtype": "float32", "axis": [3], "momentum": 0.9, "epsilon": 0.001, "center": true, "scale": true, "beta_initializer": {"class_name": "Zeros", "config": {}}, "gamma_initializer": {"class_name": "Ones", "config": {}}, "moving_mean_initializer": {"class_name": "Zeros", "config": {}}, "moving_variance_initializer": {"class_name": "Ones", "config": {}}, "beta_regularizer": null, "gamma_regularizer": null, "beta_constraint": null, "gamma_constraint": null}, "name": "block2a_expand_bn", "inbound_nodes": [[["block2a_expand_conv", 0, 0, {}]]]}, {"class_name": "Activation", "config": {"name": "block2a_expand_activation", "trainable": false, "dtype": "float32", "activation": "swish"}, "name": "block2a_expand_activation", "inbound_nodes": [[["block2a_expand_bn", 0, 0, {}]]]}, {"class_name": "Conv2D", "config": {"name": "block2a_project_conv", "trainable": false, "dtype": "float32", "filters": 32, "kernel_size": [1, 1], "strides": [1, 1], "padding": "same", "data_format": "channels_last", "dilation_rate": [1, 1], "groups": 1, "activation": "linear", "use_bias": false, "kernel_initializer": {"class_name": "VarianceScaling", "config": {"scale": 2.0, "mode": "fan_out", "distribution": "truncated_normal", "seed": null}}, "bias_initializer": {"class_name": "Zeros", "config": {}}, "kernel_regularizer": null, "bias_regularizer": null, "activity_regularizer": null, "kernel_constraint": null, "bias_constraint": null}, "name": "block2a_project_conv", "inbound_nodes": [[["block2a_expand_activation", 0, 0, {}]]]}, {"class_name": "BatchNormalization", "config": {"name": "block2a_project_bn", "trainable": false, "dtype": "float32", "axis": [3], "momentum": 0.9, "epsilon": 0.001, "center": true, "scale": true, "beta_initializer": {"class_name": "Zeros", "config": {}}, "gamma_initializer": {"class_name": "Ones", "config": {}}, "moving_mean_initializer": {"class_name": "Zeros", "config": {}}, "moving_variance_initializer": {"class_name": "Ones", "config": {}}, "beta_regularizer": null, "gamma_regularizer": null, "beta_constraint": null, "gamma_constraint": null}, "name": "block2a_project_bn", "inbound_nodes": [[["block2a_project_conv", 0, 0, {}]]]}, {"class_name": "Conv2D", "config": {"name": "block2b_expand_conv", "trainable": false, "dtype": "float32", "filters": 128, "kernel_size": [3, 3], "strides": [1, 1], "padding": "same", "data_format": "channels_last", "dilation_rate": [1, 1], "groups": 1, "activation": "linear", "use_bias": false, "kernel_initializer": {"class_name": "VarianceScaling", "config": {"scale": 2.0, "mode": "fan_out", "distribution": "truncated_normal", "seed": null}}, "bias_initializer": {"class_name": "Zeros", "config": {}}, "kernel_regularizer": null, "bias_regularizer": null, "activity_regularizer": null, "kernel_constraint": null, "bias_constraint": null}, "name": "block2b_expand_conv", "inbound_nodes": [[["block2a_project_bn", 0, 0, {}]]]}, {"class_name": "BatchNormalization", "config": {"name": "block2b_expand_bn", "trainable": false, "dtype": "float32", "axis": [3], "momentum": 0.9, "epsilon": 0.001, "center": true, "scale": true, "beta_initializer": {"class_name": "Zeros", "config": {}}, "gamma_initializer": {"class_name": "Ones", "config": {}}, "moving_mean_initializer": {"class_name": "Zeros", "config": {}}, "moving_variance_initializer": {"class_name": "Ones", "config": {}}, "beta_regularizer": null, "gamma_regularizer": null, "beta_constraint": null, "gamma_constraint": null}, "name": "block2b_expand_bn", "inbound_nodes": [[["block2b_expand_conv", 0, 0, {}]]]}, {"class_name": "Activation", "config": {"name": "block2b_expand_activation", "trainable": false, "dtype": "float32", "activation": "swish"}, "name": "block2b_expand_activation", "inbound_nodes": [[["block2b_expand_bn", 0, 0, {}]]]}, {"class_name": "Conv2D", "config": {"name": "block2b_project_conv", "trainable": false, "dtype": "float32", "filters": 32, "kernel_size": [1, 1], "strides": [1, 1], "padding": "same", "data_format": "channels_last", "dilation_rate": [1, 1], "groups": 1, "activation": "linear", "use_bias": false, "kernel_initializer": {"class_name": "VarianceScaling", "config": {"scale": 2.0, "mode": "fan_out", "distribution": "truncated_normal", "seed": null}}, "bias_initializer": {"class_name": "Zeros", "config": {}}, "kernel_regularizer": null, "bias_regularizer": null, "activity_regularizer": null, "kernel_constraint": null, "bias_constraint": null}, "name": "block2b_project_conv", "inbound_nodes": [[["block2b_expand_activation", 0, 0, {}]]]}, {"class_name": "BatchNormalization", "config": {"name": "block2b_project_bn", "trainable": false, "dtype": "float32", "axis": [3], "momentum": 0.9, "epsilon": 0.001, "center": true, "scale": true, "beta_initializer": {"class_name": "Zeros", "config": {}}, "gamma_initializer": {"class_name": "Ones", "config": {}}, "moving_mean_initializer": {"class_name": "Zeros", "config": {}}, "moving_variance_initializer": {"class_name": "Ones", "config": {}}, "beta_regularizer": null, "gamma_regularizer": null, "beta_constraint": null, "gamma_constraint": null}, "name": "block2b_project_bn", "inbound_nodes": [[["block2b_project_conv", 0, 0, {}]]]}, {"class_name": "Add", "config": {"name": "block2b_add", "trainable": false, "dtype": "float32"}, "name": "block2b_add", "inbound_nodes": [[["block2b_project_bn", 0, 0, {}], ["block2a_project_bn", 0, 0, {}]]]}, {"class_name": "Conv2D", "config": {"name": "block2c_expand_conv", "trainable": false, "dtype": "float32", "filters": 128, "kernel_size": [3, 3], "strides": [1, 1], "padding": "same", "data_format": "channels_last", "dilation_rate": [1, 1], "groups": 1, "activation": "linear", "use_bias": false, "kernel_initializer": {"class_name": "VarianceScaling", "config": {"scale": 2.0, "mode": "fan_out", "distribution": "truncated_normal", "seed": null}}, "bias_initializer": {"class_name": "Zeros", "config": {}}, "kernel_regularizer": null, "bias_regularizer": null, "activity_regularizer": null, "kernel_constraint": null, "bias_constraint": null}, "name": "block2c_expand_conv", "inbound_nodes": [[["block2b_add", 0, 0, {}]]]}, {"class_name": "BatchNormalization", "config": {"name": "block2c_expand_bn", "trainable": false, "dtype": "float32", "axis": [3], "momentum": 0.9, "epsilon": 0.001, "center": true, "scale": true, "beta_initializer": {"class_name": "Zeros", "config": {}}, "gamma_initializer": {"class_name": "Ones", "config": {}}, "moving_mean_initializer": {"class_name": "Zeros", "config": {}}, "moving_variance_initializer": {"class_name": "Ones", "config": {}}, "beta_regularizer": null, "gamma_regularizer": null, "beta_constraint": null, "gamma_constraint": null}, "name": "block2c_expand_bn", "inbound_nodes": [[["block2c_expand_conv", 0, 0, {}]]]}, {"class_name": "Activation", "config": {"name": "block2c_expand_activation", "trainable": false, "dtype": "float32", "activation": "swish"}, "name": "block2c_expand_activation", "inbound_nodes": [[["block2c_expand_bn", 0, 0, {}]]]}, {"class_name": "Conv2D", "config": {"name": "block2c_project_conv", "trainable": false, "dtype": "float32", "filters": 32, "kernel_size": [1, 1], "strides": [1, 1], "padding": "same", "data_format": "channels_last", "dilation_rate": [1, 1], "groups": 1, "activation": "linear", "use_bias": false, "kernel_initializer": {"class_name": "VarianceScaling", "config": {"scale": 2.0, "mode": "fan_out", "distribution": "truncated_normal", "seed": null}}, "bias_initializer": {"class_name": "Zeros", "config": {}}, "kernel_regularizer": null, "bias_regularizer": null, "activity_regularizer": null, "kernel_constraint": null, "bias_constraint": null}, "name": "block2c_project_conv", "inbound_nodes": [[["block2c_expand_activation", 0, 0, {}]]]}, {"class_name": "BatchNormalization", "config": {"name": "block2c_project_bn", "trainable": false, "dtype": "float32", "axis": [3], "momentum": 0.9, "epsilon": 0.001, "center": true, "scale": true, "beta_initializer": {"class_name": "Zeros", "config": {}}, "gamma_initializer": {"class_name": "Ones", "config": {}}, "moving_mean_initializer": {"class_name": "Zeros", "config": {}}, "moving_variance_initializer": {"class_name": "Ones", "config": {}}, "beta_regularizer": null, "gamma_regularizer": null, "beta_constraint": null, "gamma_constraint": null}, "name": "block2c_project_bn", "inbound_nodes": [[["block2c_project_conv", 0, 0, {}]]]}, {"class_name": "Add", "config": {"name": "block2c_add", "trainable": false, "dtype": "float32"}, "name": "block2c_add", "inbound_nodes": [[["block2c_project_bn", 0, 0, {}], ["block2b_add", 0, 0, {}]]]}, {"class_name": "Conv2D", "config": {"name": "block3a_expand_conv", "trainable": false, "dtype": "float32", "filters": 128, "kernel_size": [3, 3], "strides": [2, 2], "padding": "same", "data_format": "channels_last", "dilation_rate": [1, 1], "groups": 1, "activation": "linear", "use_bias": false, "kernel_initializer": {"class_name": "VarianceScaling", "config": {"scale": 2.0, "mode": "fan_out", "distribution": "truncated_normal", "seed": null}}, "bias_initializer": {"class_name": "Zeros", "config": {}}, "kernel_regularizer": null, "bias_regularizer": null, "activity_regularizer": null, "kernel_constraint": null, "bias_constraint": null}, "name": "block3a_expand_conv", "inbound_nodes": [[["block2c_add", 0, 0, {}]]]}, {"class_name": "BatchNormalization", "config": {"name": "block3a_expand_bn", "trainable": false, "dtype": "float32", "axis": [3], "momentum": 0.9, "epsilon": 0.001, "center": true, "scale": true, "beta_initializer": {"class_name": "Zeros", "config": {}}, "gamma_initializer": {"class_name": "Ones", "config": {}}, "moving_mean_initializer": {"class_name": "Zeros", "config": {}}, "moving_variance_initializer": {"class_name": "Ones", "config": {}}, "beta_regularizer": null, "gamma_regularizer": null, "beta_constraint": null, "gamma_constraint": null}, "name": "block3a_expand_bn", "inbound_nodes": [[["block3a_expand_conv", 0, 0, {}]]]}, {"class_name": "Activation", "config": {"name": "block3a_expand_activation", "trainable": false, "dtype": "float32", "activation": "swish"}, "name": "block3a_expand_activation", "inbound_nodes": [[["block3a_expand_bn", 0, 0, {}]]]}, {"class_name": "Conv2D", "config": {"name": "block3a_project_conv", "trainable": false, "dtype": "float32", "filters": 56, "kernel_size": [1, 1], "strides": [1, 1], "padding": "same", "data_format": "channels_last", "dilation_rate": [1, 1], "groups": 1, "activation": "linear", "use_bias": false, "kernel_initializer": {"class_name": "VarianceScaling", "config": {"scale": 2.0, "mode": "fan_out", "distribution": "truncated_normal", "seed": null}}, "bias_initializer": {"class_name": "Zeros", "config": {}}, "kernel_regularizer": null, "bias_regularizer": null, "activity_regularizer": null, "kernel_constraint": null, "bias_constraint": null}, "name": "block3a_project_conv", "inbound_nodes": [[["block3a_expand_activation", 0, 0, {}]]]}, {"class_name": "BatchNormalization", "config": {"name": "block3a_project_bn", "trainable": false, "dtype": "float32", "axis": [3], "momentum": 0.9, "epsilon": 0.001, "center": true, "scale": true, "beta_initializer": {"class_name": "Zeros", "config": {}}, "gamma_initializer": {"class_name": "Ones", "config": {}}, "moving_mean_initializer": {"class_name": "Zeros", "config": {}}, "moving_variance_initializer": {"class_name": "Ones", "config": {}}, "beta_regularizer": null, "gamma_regularizer": null, "beta_constraint": null, "gamma_constraint": null}, "name": "block3a_project_bn", "inbound_nodes": [[["block3a_project_conv", 0, 0, {}]]]}, {"class_name": "Conv2D", "config": {"name": "block3b_expand_conv", "trainable": false, "dtype": "float32", "filters": 224, "kernel_size": [3, 3], "strides": [1, 1], "padding": "same", "data_format": "channels_last", "dilation_rate": [1, 1], "groups": 1, "activation": "linear", "use_bias": false, "kernel_initializer": {"class_name": "VarianceScaling", "config": {"scale": 2.0, "mode": "fan_out", "distribution": "truncated_normal", "seed": null}}, "bias_initializer": {"class_name": "Zeros", "config": {}}, "kernel_regularizer": null, "bias_regularizer": null, "activity_regularizer": null, "kernel_constraint": null, "bias_constraint": null}, "name": "block3b_expand_conv", "inbound_nodes": [[["block3a_project_bn", 0, 0, {}]]]}, {"class_name": "BatchNormalization", "config": {"name": "block3b_expand_bn", "trainable": false, "dtype": "float32", "axis": [3], "momentum": 0.9, "epsilon": 0.001, "center": true, "scale": true, "beta_initializer": {"class_name": "Zeros", "config": {}}, "gamma_initializer": {"class_name": "Ones", "config": {}}, "moving_mean_initializer": {"class_name": "Zeros", "config": {}}, "moving_variance_initializer": {"class_name": "Ones", "config": {}}, "beta_regularizer": null, "gamma_regularizer": null, "beta_constraint": null, "gamma_constraint": null}, "name": "block3b_expand_bn", "inbound_nodes": [[["block3b_expand_conv", 0, 0, {}]]]}, {"class_name": "Activation", "config": {"name": "block3b_expand_activation", "trainable": false, "dtype": "float32", "activation": "swish"}, "name": "block3b_expand_activation", "inbound_nodes": [[["block3b_expand_bn", 0, 0, {}]]]}, {"class_name": "Conv2D", "config": {"name": "block3b_project_conv", "trainable": false, "dtype": "float32", "filters": 56, "kernel_size": [1, 1], "strides": [1, 1], "padding": "same", "data_format": "channels_last", "dilation_rate": [1, 1], "groups": 1, "activation": "linear", "use_bias": false, "kernel_initializer": {"class_name": "VarianceScaling", "config": {"scale": 2.0, "mode": "fan_out", "distribution": "truncated_normal", "seed": null}}, "bias_initializer": {"class_name": "Zeros", "config": {}}, "kernel_regularizer": null, "bias_regularizer": null, "activity_regularizer": null, "kernel_constraint": null, "bias_constraint": null}, "name": "block3b_project_conv", "inbound_nodes": [[["block3b_expand_activation", 0, 0, {}]]]}, {"class_name": "BatchNormalization", "config": {"name": "block3b_project_bn", "trainable": false, "dtype": "float32", "axis": [3], "momentum": 0.9, "epsilon": 0.001, "center": true, "scale": true, "beta_initializer": {"class_name": "Zeros", "config": {}}, "gamma_initializer": {"class_name": "Ones", "config": {}}, "moving_mean_initializer": {"class_name": "Zeros", "config": {}}, "moving_variance_initializer": {"class_name": "Ones", "config": {}}, "beta_regularizer": null, "gamma_regularizer": null, "beta_constraint": null, "gamma_constraint": null}, "name": "block3b_project_bn", "inbound_nodes": [[["block3b_project_conv", 0, 0, {}]]]}, {"class_name": "Add", "config": {"name": "block3b_add", "trainable": false, "dtype": "float32"}, "name": "block3b_add", "inbound_nodes": [[["block3b_project_bn", 0, 0, {}], ["block3a_project_bn", 0, 0, {}]]]}, {"class_name": "Conv2D", "config": {"name": "block3c_expand_conv", "trainable": false, "dtype": "float32", "filters": 224, "kernel_size": [3, 3], "strides": [1, 1], "padding": "same", "data_format": "channels_last", "dilation_rate": [1, 1], "groups": 1, "activation": "linear", "use_bias": false, "kernel_initializer": {"class_name": "VarianceScaling", "config": {"scale": 2.0, "mode": "fan_out", "distribution": "truncated_normal", "seed": null}}, "bias_initializer": {"class_name": "Zeros", "config": {}}, "kernel_regularizer": null, "bias_regularizer": null, "activity_regularizer": null, "kernel_constraint": null, "bias_constraint": null}, "name": "block3c_expand_conv", "inbound_nodes": [[["block3b_add", 0, 0, {}]]]}, {"class_name": "BatchNormalization", "config": {"name": "block3c_expand_bn", "trainable": false, "dtype": "float32", "axis": [3], "momentum": 0.9, "epsilon": 0.001, "center": true, "scale": true, "beta_initializer": {"class_name": "Zeros", "config": {}}, "gamma_initializer": {"class_name": "Ones", "config": {}}, "moving_mean_initializer": {"class_name": "Zeros", "config": {}}, "moving_variance_initializer": {"class_name": "Ones", "config": {}}, "beta_regularizer": null, "gamma_regularizer": null, "beta_constraint": null, "gamma_constraint": null}, "name": "block3c_expand_bn", "inbound_nodes": [[["block3c_expand_conv", 0, 0, {}]]]}, {"class_name": "Activation", "config": {"name": "block3c_expand_activation", "trainable": false, "dtype": "float32", "activation": "swish"}, "name": "block3c_expand_activation", "inbound_nodes": [[["block3c_expand_bn", 0, 0, {}]]]}, {"class_name": "Conv2D", "config": {"name": "block3c_project_conv", "trainable": false, "dtype": "float32", "filters": 56, "kernel_size": [1, 1], "strides": [1, 1], "padding": "same", "data_format": "channels_last", "dilation_rate": [1, 1], "groups": 1, "activation": "linear", "use_bias": false, "kernel_initializer": {"class_name": "VarianceScaling", "config": {"scale": 2.0, "mode": "fan_out", "distribution": "truncated_normal", "seed": null}}, "bias_initializer": {"class_name": "Zeros", "config": {}}, "kernel_regularizer": null, "bias_regularizer": null, "activity_regularizer": null, "kernel_constraint": null, "bias_constraint": null}, "name": "block3c_project_conv", "inbound_nodes": [[["block3c_expand_activation", 0, 0, {}]]]}, {"class_name": "BatchNormalization", "config": {"name": "block3c_project_bn", "trainable": false, "dtype": "float32", "axis": [3], "momentum": 0.9, "epsilon": 0.001, "center": true, "scale": true, "beta_initializer": {"class_name": "Zeros", "config": {}}, "gamma_initializer": {"class_name": "Ones", "config": {}}, "moving_mean_initializer": {"class_name": "Zeros", "config": {}}, "moving_variance_initializer": {"class_name": "Ones", "config": {}}, "beta_regularizer": null, "gamma_regularizer": null, "beta_constraint": null, "gamma_constraint": null}, "name": "block3c_project_bn", "inbound_nodes": [[["block3c_project_conv", 0, 0, {}]]]}, {"class_name": "Add", "config": {"name": "block3c_add", "trainable": false, "dtype": "float32"}, "name": "block3c_add", "inbound_nodes": [[["block3c_project_bn", 0, 0, {}], ["block3b_add", 0, 0, {}]]]}, {"class_name": "Conv2D", "config": {"name": "block4a_expand_conv", "trainable": false, "dtype": "float32", "filters": 224, "kernel_size": [1, 1], "strides": [1, 1], "padding": "same", "data_format": "channels_last", "dilation_rate": [1, 1], "groups": 1, "activation": "linear", "use_bias": false, "kernel_initializer": {"class_name": "VarianceScaling", "config": {"scale": 2.0, "mode": "fan_out", "distribution": "truncated_normal", "seed": null}}, "bias_initializer": {"class_name": "Zeros", "config": {}}, "kernel_regularizer": null, "bias_regularizer": null, "activity_regularizer": null, "kernel_constraint": null, "bias_constraint": null}, "name": "block4a_expand_conv", "inbound_nodes": [[["block3c_add", 0, 0, {}]]]}, {"class_name": "BatchNormalization", "config": {"name": "block4a_expand_bn", "trainable": false, "dtype": "float32", "axis": [3], "momentum": 0.9, "epsilon": 0.001, "center": true, "scale": true, "beta_initializer": {"class_name": "Zeros", "config": {}}, "gamma_initializer": {"class_name": "Ones", "config": {}}, "moving_mean_initializer": {"class_name": "Zeros", "config": {}}, "moving_variance_initializer": {"class_name": "Ones", "config": {}}, "beta_regularizer": null, "gamma_regularizer": null, "beta_constraint": null, "gamma_constraint": null}, "name": "block4a_expand_bn", "inbound_nodes": [[["block4a_expand_conv", 0, 0, {}]]]}, {"class_name": "Activation", "config": {"name": "block4a_expand_activation", "trainable": false, "dtype": "float32", "activation": "swish"}, "name": "block4a_expand_activation", "inbound_nodes": [[["block4a_expand_bn", 0, 0, {}]]]}, {"class_name": "DepthwiseConv2D", "config": {"name": "block4a_dwconv2", "trainable": false, "dtype": "float32", "kernel_size": [3, 3], "strides": [2, 2], "padding": "same", "data_format": "channels_last", "dilation_rate": [1, 1], "groups": 1, "activation": "linear", "use_bias": false, "bias_initializer": {"class_name": "Zeros", "config": {}}, "bias_regularizer": null, "activity_regularizer": null, "bias_constraint": null, "depth_multiplier": 1, "depthwise_initializer": {"class_name": "VarianceScaling", "config": {"scale": 2.0, "mode": "fan_out", "distribution": "truncated_normal", "seed": null}}, "depthwise_regularizer": null, "depthwise_constraint": null}, "name": "block4a_dwconv2", "inbound_nodes": [[["block4a_expand_activation", 0, 0, {}]]]}, {"class_name": "BatchNormalization", "config": {"name": "block4a_bn", "trainable": false, "dtype": "float32", "axis": [3], "momentum": 0.9, "epsilon": 0.001, "center": true, "scale": true, "beta_initializer": {"class_name": "Zeros", "config": {}}, "gamma_initializer": {"class_name": "Ones", "config": {}}, "moving_mean_initializer": {"class_name": "Zeros", "config": {}}, "moving_variance_initializer": {"class_name": "Ones", "config": {}}, "beta_regularizer": null, "gamma_regularizer": null, "beta_constraint": null, "gamma_constraint": null}, "name": "block4a_bn", "inbound_nodes": [[["block4a_dwconv2", 0, 0, {}]]]}, {"class_name": "Activation", "config": {"name": "block4a_activation", "trainable": false, "dtype": "float32", "activation": "swish"}, "name": "block4a_activation", "inbound_nodes": [[["block4a_bn", 0, 0, {}]]]}, {"class_name": "GlobalAveragePooling2D", "config": {"name": "block4a_se_squeeze", "trainable": false, "dtype": "float32", "data_format": "channels_last", "keepdims": false}, "name": "block4a_se_squeeze", "inbound_nodes": [[["block4a_activation", 0, 0, {}]]]}, {"class_name": "Reshape", "config": {"name": "block4a_se_reshape", "trainable": false, "dtype": "float32", "target_shape": [1, 1, 224]}, "name": "block4a_se_reshape", "inbound_nodes": [[["block4a_se_squeeze", 0, 0, {}]]]}, {"class_name": "Conv2D", "config": {"name": "block4a_se_reduce", "trainable": false, "dtype": "float32", "filters": 14, "kernel_size": [1, 1], "strides": [1, 1], "padding": "same", "data_format": "channels_last", "dilation_rate": [1, 1], "groups": 1, "activation": "swish", "use_bias": true, "kernel_initializer": {"class_name": "VarianceScaling", "config": {"scale": 2.0, "mode": "fan_out", "distribution": "truncated_normal", "seed": null}}, "bias_initializer": {"class_name": "Zeros", "config": {}}, "kernel_regularizer": null, "bias_regularizer": null, "activity_regularizer": null, "kernel_constraint": null, "bias_constraint": null}, "name": "block4a_se_reduce", "inbound_nodes": [[["block4a_se_reshape", 0, 0, {}]]]}, {"class_name": "Conv2D", "config": {"name": "block4a_se_expand", "trainable": false, "dtype": "float32", "filters": 224, "kernel_size": [1, 1], "strides": [1, 1], "padding": "same", "data_format": "channels_last", "dilation_rate": [1, 1], "groups": 1, "activation": "sigmoid", "use_bias": true, "kernel_initializer": {"class_name": "VarianceScaling", "config": {"scale": 2.0, "mode": "fan_out", "distribution": "truncated_normal", "seed": null}}, "bias_initializer": {"class_name": "Zeros", "config": {}}, "kernel_regularizer": null, "bias_regularizer": null, "activity_regularizer": null, "kernel_constraint": null, "bias_constraint": null}, "name": "block4a_se_expand", "inbound_nodes": [[["block4a_se_reduce", 0, 0, {}]]]}, {"class_name": "Multiply", "config": {"name": "block4a_se_excite", "trainable": false, "dtype": "float32"}, "name": "block4a_se_excite", "inbound_nodes": [[["block4a_activation", 0, 0, {}], ["block4a_se_expand", 0, 0, {}]]]}, {"class_name": "Conv2D", "config": {"name": "block4a_project_conv", "trainable": false, "dtype": "float32", "filters": 104, "kernel_size": [1, 1], "strides": [1, 1], "padding": "same", "data_format": "channels_last", "dilation_rate": [1, 1], "groups": 1, "activation": "linear", "use_bias": false, "kernel_initializer": {"class_name": "VarianceScaling", "config": {"scale": 2.0, "mode": "fan_out", "distribution": "truncated_normal", "seed": null}}, "bias_initializer": {"class_name": "Zeros", "config": {}}, "kernel_regularizer": null, "bias_regularizer": null, "activity_regularizer": null, "kernel_constraint": null, "bias_constraint": null}, "name": "block4a_project_conv", "inbound_nodes": [[["block4a_se_excite", 0, 0, {}]]]}, {"class_name": "BatchNormalization", "config": {"name": "block4a_project_bn", "trainable": false, "dtype": "float32", "axis": [3], "momentum": 0.9, "epsilon": 0.001, "center": true, "scale": true, "beta_initializer": {"class_name": "Zeros", "config": {}}, "gamma_initializer": {"class_name": "Ones", "config": {}}, "moving_mean_initializer": {"class_name": "Zeros", "config": {}}, "moving_variance_initializer": {"class_name": "Ones", "config": {}}, "beta_regularizer": null, "gamma_regularizer": null, "beta_constraint": null, "gamma_constraint": null}, "name": "block4a_project_bn", "inbound_nodes": [[["block4a_project_conv", 0, 0, {}]]]}, {"class_name": "Conv2D", "config": {"name": "block4b_expand_conv", "trainable": false, "dtype": "float32", "filters": 416, "kernel_size": [1, 1], "strides": [1, 1], "padding": "same", "data_format": "channels_last", "dilation_rate": [1, 1], "groups": 1, "activation": "linear", "use_bias": false, "kernel_initializer": {"class_name": "VarianceScaling", "config": {"scale": 2.0, "mode": "fan_out", "distribution": "truncated_normal", "seed": null}}, "bias_initializer": {"class_name": "Zeros", "config": {}}, "kernel_regularizer": null, "bias_regularizer": null, "activity_regularizer": null, "kernel_constraint": null, "bias_constraint": null}, "name": "block4b_expand_conv", "inbound_nodes": [[["block4a_project_bn", 0, 0, {}]]]}, {"class_name": "BatchNormalization", "config": {"name": "block4b_expand_bn", "trainable": false, "dtype": "float32", "axis": [3], "momentum": 0.9, "epsilon": 0.001, "center": true, "scale": true, "beta_initializer": {"class_name": "Zeros", "config": {}}, "gamma_initializer": {"class_name": "Ones", "config": {}}, "moving_mean_initializer": {"class_name": "Zeros", "config": {}}, "moving_variance_initializer": {"class_name": "Ones", "config": {}}, "beta_regularizer": null, "gamma_regularizer": null, "beta_constraint": null, "gamma_constraint": null}, "name": "block4b_expand_bn", "inbound_nodes": [[["block4b_expand_conv", 0, 0, {}]]]}, {"class_name": "Activation", "config": {"name": "block4b_expand_activation", "trainable": false, "dtype": "float32", "activation": "swish"}, "name": "block4b_expand_activation", "inbound_nodes": [[["block4b_expand_bn", 0, 0, {}]]]}, {"class_name": "DepthwiseConv2D", "config": {"name": "block4b_dwconv2", "trainable": false, "dtype": "float32", "kernel_size": [3, 3], "strides": [1, 1], "padding": "same", "data_format": "channels_last", "dilation_rate": [1, 1], "groups": 1, "activation": "linear", "use_bias": false, "bias_initializer": {"class_name": "Zeros", "config": {}}, "bias_regularizer": null, "activity_regularizer": null, "bias_constraint": null, "depth_multiplier": 1, "depthwise_initializer": {"class_name": "VarianceScaling", "config": {"scale": 2.0, "mode": "fan_out", "distribution": "truncated_normal", "seed": null}}, "depthwise_regularizer": null, "depthwise_constraint": null}, "name": "block4b_dwconv2", "inbound_nodes": [[["block4b_expand_activation", 0, 0, {}]]]}, {"class_name": "BatchNormalization", "config": {"name": "block4b_bn", "trainable": false, "dtype": "float32", "axis": [3], "momentum": 0.9, "epsilon": 0.001, "center": true, "scale": true, "beta_initializer": {"class_name": "Zeros", "config": {}}, "gamma_initializer": {"class_name": "Ones", "config": {}}, "moving_mean_initializer": {"class_name": "Zeros", "config": {}}, "moving_variance_initializer": {"class_name": "Ones", "config": {}}, "beta_regularizer": null, "gamma_regularizer": null, "beta_constraint": null, "gamma_constraint": null}, "name": "block4b_bn", "inbound_nodes": [[["block4b_dwconv2", 0, 0, {}]]]}, {"class_name": "Activation", "config": {"name": "block4b_activation", "trainable": false, "dtype": "float32", "activation": "swish"}, "name": "block4b_activation", "inbound_nodes": [[["block4b_bn", 0, 0, {}]]]}, {"class_name": "GlobalAveragePooling2D", "config": {"name": "block4b_se_squeeze", "trainable": false, "dtype": "float32", "data_format": "channels_last", "keepdims": false}, "name": "block4b_se_squeeze", "inbound_nodes": [[["block4b_activation", 0, 0, {}]]]}, {"class_name": "Reshape", "config": {"name": "block4b_se_reshape", "trainable": false, "dtype": "float32", "target_shape": [1, 1, 416]}, "name": "block4b_se_reshape", "inbound_nodes": [[["block4b_se_squeeze", 0, 0, {}]]]}, {"class_name": "Conv2D", "config": {"name": "block4b_se_reduce", "trainable": false, "dtype": "float32", "filters": 26, "kernel_size": [1, 1], "strides": [1, 1], "padding": "same", "data_format": "channels_last", "dilation_rate": [1, 1], "groups": 1, "activation": "swish", "use_bias": true, "kernel_initializer": {"class_name": "VarianceScaling", "config": {"scale": 2.0, "mode": "fan_out", "distribution": "truncated_normal", "seed": null}}, "bias_initializer": {"class_name": "Zeros", "config": {}}, "kernel_regularizer": null, "bias_regularizer": null, "activity_regularizer": null, "kernel_constraint": null, "bias_constraint": null}, "name": "block4b_se_reduce", "inbound_nodes": [[["block4b_se_reshape", 0, 0, {}]]]}, {"class_name": "Conv2D", "config": {"name": "block4b_se_expand", "trainable": false, "dtype": "float32", "filters": 416, "kernel_size": [1, 1], "strides": [1, 1], "padding": "same", "data_format": "channels_last", "dilation_rate": [1, 1], "groups": 1, "activation": "sigmoid", "use_bias": true, "kernel_initializer": {"class_name": "VarianceScaling", "config": {"scale": 2.0, "mode": "fan_out", "distribution": "truncated_normal", "seed": null}}, "bias_initializer": {"class_name": "Zeros", "config": {}}, "kernel_regularizer": null, "bias_regularizer": null, "activity_regularizer": null, "kernel_constraint": null, "bias_constraint": null}, "name": "block4b_se_expand", "inbound_nodes": [[["block4b_se_reduce", 0, 0, {}]]]}, {"class_name": "Multiply", "config": {"name": "block4b_se_excite", "trainable": false, "dtype": "float32"}, "name": "block4b_se_excite", "inbound_nodes": [[["block4b_activation", 0, 0, {}], ["block4b_se_expand", 0, 0, {}]]]}, {"class_name": "Conv2D", "config": {"name": "block4b_project_conv", "trainable": false, "dtype": "float32", "filters": 104, "kernel_size": [1, 1], "strides": [1, 1], "padding": "same", "data_format": "channels_last", "dilation_rate": [1, 1], "groups": 1, "activation": "linear", "use_bias": false, "kernel_initializer": {"class_name": "VarianceScaling", "config": {"scale": 2.0, "mode": "fan_out", "distribution": "truncated_normal", "seed": null}}, "bias_initializer": {"class_name": "Zeros", "config": {}}, "kernel_regularizer": null, "bias_regularizer": null, "activity_regularizer": null, "kernel_constraint": null, "bias_constraint": null}, "name": "block4b_project_conv", "inbound_nodes": [[["block4b_se_excite", 0, 0, {}]]]}, {"class_name": "BatchNormalization", "config": {"name": "block4b_project_bn", "trainable": false, "dtype": "float32", "axis": [3], "momentum": 0.9, "epsilon": 0.001, "center": true, "scale": true, "beta_initializer": {"class_name": "Zeros", "config": {}}, "gamma_initializer": {"class_name": "Ones", "config": {}}, "moving_mean_initializer": {"class_name": "Zeros", "config": {}}, "moving_variance_initializer": {"class_name": "Ones", "config": {}}, "beta_regularizer": null, "gamma_regularizer": null, "beta_constraint": null, "gamma_constraint": null}, "name": "block4b_project_bn", "inbound_nodes": [[["block4b_project_conv", 0, 0, {}]]]}, {"class_name": "Add", "config": {"name": "block4b_add", "trainable": false, "dtype": "float32"}, "name": "block4b_add", "inbound_nodes": [[["block4b_project_bn", 0, 0, {}], ["block4a_project_bn", 0, 0, {}]]]}, {"class_name": "Conv2D", "config": {"name": "block4c_expand_conv", "trainable": false, "dtype": "float32", "filters": 416, "kernel_size": [1, 1], "strides": [1, 1], "padding": "same", "data_format": "channels_last", "dilation_rate": [1, 1], "groups": 1, "activation": "linear", "use_bias": false, "kernel_initializer": {"class_name": "VarianceScaling", "config": {"scale": 2.0, "mode": "fan_out", "distribution": "truncated_normal", "seed": null}}, "bias_initializer": {"class_name": "Zeros", "config": {}}, "kernel_regularizer": null, "bias_regularizer": null, "activity_regularizer": null, "kernel_constraint": null, "bias_constraint": null}, "name": "block4c_expand_conv", "inbound_nodes": [[["block4b_add", 0, 0, {}]]]}, {"class_name": "BatchNormalization", "config": {"name": "block4c_expand_bn", "trainable": false, "dtype": "float32", "axis": [3], "momentum": 0.9, "epsilon": 0.001, "center": true, "scale": true, "beta_initializer": {"class_name": "Zeros", "config": {}}, "gamma_initializer": {"class_name": "Ones", "config": {}}, "moving_mean_initializer": {"class_name": "Zeros", "config": {}}, "moving_variance_initializer": {"class_name": "Ones", "config": {}}, "beta_regularizer": null, "gamma_regularizer": null, "beta_constraint": null, "gamma_constraint": null}, "name": "block4c_expand_bn", "inbound_nodes": [[["block4c_expand_conv", 0, 0, {}]]]}, {"class_name": "Activation", "config": {"name": "block4c_expand_activation", "trainable": false, "dtype": "float32", "activation": "swish"}, "name": "block4c_expand_activation", "inbound_nodes": [[["block4c_expand_bn", 0, 0, {}]]]}, {"class_name": "DepthwiseConv2D", "config": {"name": "block4c_dwconv2", "trainable": false, "dtype": "float32", "kernel_size": [3, 3], "strides": [1, 1], "padding": "same", "data_format": "channels_last", "dilation_rate": [1, 1], "groups": 1, "activation": "linear", "use_bias": false, "bias_initializer": {"class_name": "Zeros", "config": {}}, "bias_regularizer": null, "activity_regularizer": null, "bias_constraint": null, "depth_multiplier": 1, "depthwise_initializer": {"class_name": "VarianceScaling", "config": {"scale": 2.0, "mode": "fan_out", "distribution": "truncated_normal", "seed": null}}, "depthwise_regularizer": null, "depthwise_constraint": null}, "name": "block4c_dwconv2", "inbound_nodes": [[["block4c_expand_activation", 0, 0, {}]]]}, {"class_name": "BatchNormalization", "config": {"name": "block4c_bn", "trainable": false, "dtype": "float32", "axis": [3], "momentum": 0.9, "epsilon": 0.001, "center": true, "scale": true, "beta_initializer": {"class_name": "Zeros", "config": {}}, "gamma_initializer": {"class_name": "Ones", "config": {}}, "moving_mean_initializer": {"class_name": "Zeros", "config": {}}, "moving_variance_initializer": {"class_name": "Ones", "config": {}}, "beta_regularizer": null, "gamma_regularizer": null, "beta_constraint": null, "gamma_constraint": null}, "name": "block4c_bn", "inbound_nodes": [[["block4c_dwconv2", 0, 0, {}]]]}, {"class_name": "Activation", "config": {"name": "block4c_activation", "trainable": false, "dtype": "float32", "activation": "swish"}, "name": "block4c_activation", "inbound_nodes": [[["block4c_bn", 0, 0, {}]]]}, {"class_name": "GlobalAveragePooling2D", "config": {"name": "block4c_se_squeeze", "trainable": false, "dtype": "float32", "data_format": "channels_last", "keepdims": false}, "name": "block4c_se_squeeze", "inbound_nodes": [[["block4c_activation", 0, 0, {}]]]}, {"class_name": "Reshape", "config": {"name": "block4c_se_reshape", "trainable": false, "dtype": "float32", "target_shape": [1, 1, 416]}, "name": "block4c_se_reshape", "inbound_nodes": [[["block4c_se_squeeze", 0, 0, {}]]]}, {"class_name": "Conv2D", "config": {"name": "block4c_se_reduce", "trainable": false, "dtype": "float32", "filters": 26, "kernel_size": [1, 1], "strides": [1, 1], "padding": "same", "data_format": "channels_last", "dilation_rate": [1, 1], "groups": 1, "activation": "swish", "use_bias": true, "kernel_initializer": {"class_name": "VarianceScaling", "config": {"scale": 2.0, "mode": "fan_out", "distribution": "truncated_normal", "seed": null}}, "bias_initializer": {"class_name": "Zeros", "config": {}}, "kernel_regularizer": null, "bias_regularizer": null, "activity_regularizer": null, "kernel_constraint": null, "bias_constraint": null}, "name": "block4c_se_reduce", "inbound_nodes": [[["block4c_se_reshape", 0, 0, {}]]]}, {"class_name": "Conv2D", "config": {"name": "block4c_se_expand", "trainable": false, "dtype": "float32", "filters": 416, "kernel_size": [1, 1], "strides": [1, 1], "padding": "same", "data_format": "channels_last", "dilation_rate": [1, 1], "groups": 1, "activation": "sigmoid", "use_bias": true, "kernel_initializer": {"class_name": "VarianceScaling", "config": {"scale": 2.0, "mode": "fan_out", "distribution": "truncated_normal", "seed": null}}, "bias_initializer": {"class_name": "Zeros", "config": {}}, "kernel_regularizer": null, "bias_regularizer": null, "activity_regularizer": null, "kernel_constraint": null, "bias_constraint": null}, "name": "block4c_se_expand", "inbound_nodes": [[["block4c_se_reduce", 0, 0, {}]]]}, {"class_name": "Multiply", "config": {"name": "block4c_se_excite", "trainable": false, "dtype": "float32"}, "name": "block4c_se_excite", "inbound_nodes": [[["block4c_activation", 0, 0, {}], ["block4c_se_expand", 0, 0, {}]]]}, {"class_name": "Conv2D", "config": {"name": "block4c_project_conv", "trainable": false, "dtype": "float32", "filters": 104, "kernel_size": [1, 1], "strides": [1, 1], "padding": "same", "data_format": "channels_last", "dilation_rate": [1, 1], "groups": 1, "activation": "linear", "use_bias": false, "kernel_initializer": {"class_name": "VarianceScaling", "config": {"scale": 2.0, "mode": "fan_out", "distribution": "truncated_normal", "seed": null}}, "bias_initializer": {"class_name": "Zeros", "config": {}}, "kernel_regularizer": null, "bias_regularizer": null, "activity_regularizer": null, "kernel_constraint": null, "bias_constraint": null}, "name": "block4c_project_conv", "inbound_nodes": [[["block4c_se_excite", 0, 0, {}]]]}, {"class_name": "BatchNormalization", "config": {"name": "block4c_project_bn", "trainable": false, "dtype": "float32", "axis": [3], "momentum": 0.9, "epsilon": 0.001, "center": true, "scale": true, "beta_initializer": {"class_name": "Zeros", "config": {}}, "gamma_initializer": {"class_name": "Ones", "config": {}}, "moving_mean_initializer": {"class_name": "Zeros", "config": {}}, "moving_variance_initializer": {"class_name": "Ones", "config": {}}, "beta_regularizer": null, "gamma_regularizer": null, "beta_constraint": null, "gamma_constraint": null}, "name": "block4c_project_bn", "inbound_nodes": [[["block4c_project_conv", 0, 0, {}]]]}, {"class_name": "Add", "config": {"name": "block4c_add", "trainable": false, "dtype": "float32"}, "name": "block4c_add", "inbound_nodes": [[["block4c_project_bn", 0, 0, {}], ["block4b_add", 0, 0, {}]]]}, {"class_name": "Conv2D", "config": {"name": "block4d_expand_conv", "trainable": false, "dtype": "float32", "filters": 416, "kernel_size": [1, 1], "strides": [1, 1], "padding": "same", "data_format": "channels_last", "dilation_rate": [1, 1], "groups": 1, "activation": "linear", "use_bias": false, "kernel_initializer": {"class_name": "VarianceScaling", "config": {"scale": 2.0, "mode": "fan_out", "distribution": "truncated_normal", "seed": null}}, "bias_initializer": {"class_name": "Zeros", "config": {}}, "kernel_regularizer": null, "bias_regularizer": null, "activity_regularizer": null, "kernel_constraint": null, "bias_constraint": null}, "name": "block4d_expand_conv", "inbound_nodes": [[["block4c_add", 0, 0, {}]]]}, {"class_name": "BatchNormalization", "config": {"name": "block4d_expand_bn", "trainable": false, "dtype": "float32", "axis": [3], "momentum": 0.9, "epsilon": 0.001, "center": true, "scale": true, "beta_initializer": {"class_name": "Zeros", "config": {}}, "gamma_initializer": {"class_name": "Ones", "config": {}}, "moving_mean_initializer": {"class_name": "Zeros", "config": {}}, "moving_variance_initializer": {"class_name": "Ones", "config": {}}, "beta_regularizer": null, "gamma_regularizer": null, "beta_constraint": null, "gamma_constraint": null}, "name": "block4d_expand_bn", "inbound_nodes": [[["block4d_expand_conv", 0, 0, {}]]]}, {"class_name": "Activation", "config": {"name": "block4d_expand_activation", "trainable": false, "dtype": "float32", "activation": "swish"}, "name": "block4d_expand_activation", "inbound_nodes": [[["block4d_expand_bn", 0, 0, {}]]]}, {"class_name": "DepthwiseConv2D", "config": {"name": "block4d_dwconv2", "trainable": false, "dtype": "float32", "kernel_size": [3, 3], "strides": [1, 1], "padding": "same", "data_format": "channels_last", "dilation_rate": [1, 1], "groups": 1, "activation": "linear", "use_bias": false, "bias_initializer": {"class_name": "Zeros", "config": {}}, "bias_regularizer": null, "activity_regularizer": null, "bias_constraint": null, "depth_multiplier": 1, "depthwise_initializer": {"class_name": "VarianceScaling", "config": {"scale": 2.0, "mode": "fan_out", "distribution": "truncated_normal", "seed": null}}, "depthwise_regularizer": null, "depthwise_constraint": null}, "name": "block4d_dwconv2", "inbound_nodes": [[["block4d_expand_activation", 0, 0, {}]]]}, {"class_name": "BatchNormalization", "config": {"name": "block4d_bn", "trainable": false, "dtype": "float32", "axis": [3], "momentum": 0.9, "epsilon": 0.001, "center": true, "scale": true, "beta_initializer": {"class_name": "Zeros", "config": {}}, "gamma_initializer": {"class_name": "Ones", "config": {}}, "moving_mean_initializer": {"class_name": "Zeros", "config": {}}, "moving_variance_initializer": {"class_name": "Ones", "config": {}}, "beta_regularizer": null, "gamma_regularizer": null, "beta_constraint": null, "gamma_constraint": null}, "name": "block4d_bn", "inbound_nodes": [[["block4d_dwconv2", 0, 0, {}]]]}, {"class_name": "Activation", "config": {"name": "block4d_activation", "trainable": false, "dtype": "float32", "activation": "swish"}, "name": "block4d_activation", "inbound_nodes": [[["block4d_bn", 0, 0, {}]]]}, {"class_name": "GlobalAveragePooling2D", "config": {"name": "block4d_se_squeeze", "trainable": false, "dtype": "float32", "data_format": "channels_last", "keepdims": false}, "name": "block4d_se_squeeze", "inbound_nodes": [[["block4d_activation", 0, 0, {}]]]}, {"class_name": "Reshape", "config": {"name": "block4d_se_reshape", "trainable": false, "dtype": "float32", "target_shape": [1, 1, 416]}, "name": "block4d_se_reshape", "inbound_nodes": [[["block4d_se_squeeze", 0, 0, {}]]]}, {"class_name": "Conv2D", "config": {"name": "block4d_se_reduce", "trainable": false, "dtype": "float32", "filters": 26, "kernel_size": [1, 1], "strides": [1, 1], "padding": "same", "data_format": "channels_last", "dilation_rate": [1, 1], "groups": 1, "activation": "swish", "use_bias": true, "kernel_initializer": {"class_name": "VarianceScaling", "config": {"scale": 2.0, "mode": "fan_out", "distribution": "truncated_normal", "seed": null}}, "bias_initializer": {"class_name": "Zeros", "config": {}}, "kernel_regularizer": null, "bias_regularizer": null, "activity_regularizer": null, "kernel_constraint": null, "bias_constraint": null}, "name": "block4d_se_reduce", "inbound_nodes": [[["block4d_se_reshape", 0, 0, {}]]]}, {"class_name": "Conv2D", "config": {"name": "block4d_se_expand", "trainable": false, "dtype": "float32", "filters": 416, "kernel_size": [1, 1], "strides": [1, 1], "padding": "same", "data_format": "channels_last", "dilation_rate": [1, 1], "groups": 1, "activation": "sigmoid", "use_bias": true, "kernel_initializer": {"class_name": "VarianceScaling", "config": {"scale": 2.0, "mode": "fan_out", "distribution": "truncated_normal", "seed": null}}, "bias_initializer": {"class_name": "Zeros", "config": {}}, "kernel_regularizer": null, "bias_regularizer": null, "activity_regularizer": null, "kernel_constraint": null, "bias_constraint": null}, "name": "block4d_se_expand", "inbound_nodes": [[["block4d_se_reduce", 0, 0, {}]]]}, {"class_name": "Multiply", "config": {"name": "block4d_se_excite", "trainable": false, "dtype": "float32"}, "name": "block4d_se_excite", "inbound_nodes": [[["block4d_activation", 0, 0, {}], ["block4d_se_expand", 0, 0, {}]]]}, {"class_name": "Conv2D", "config": {"name": "block4d_project_conv", "trainable": false, "dtype": "float32", "filters": 104, "kernel_size": [1, 1], "strides": [1, 1], "padding": "same", "data_format": "channels_last", "dilation_rate": [1, 1], "groups": 1, "activation": "linear", "use_bias": false, "kernel_initializer": {"class_name": "VarianceScaling", "config": {"scale": 2.0, "mode": "fan_out", "distribution": "truncated_normal", "seed": null}}, "bias_initializer": {"class_name": "Zeros", "config": {}}, "kernel_regularizer": null, "bias_regularizer": null, "activity_regularizer": null, "kernel_constraint": null, "bias_constraint": null}, "name": "block4d_project_conv", "inbound_nodes": [[["block4d_se_excite", 0, 0, {}]]]}, {"class_name": "BatchNormalization", "config": {"name": "block4d_project_bn", "trainable": false, "dtype": "float32", "axis": [3], "momentum": 0.9, "epsilon": 0.001, "center": true, "scale": true, "beta_initializer": {"class_name": "Zeros", "config": {}}, "gamma_initializer": {"class_name": "Ones", "config": {}}, "moving_mean_initializer": {"class_name": "Zeros", "config": {}}, "moving_variance_initializer": {"class_name": "Ones", "config": {}}, "beta_regularizer": null, "gamma_regularizer": null, "beta_constraint": null, "gamma_constraint": null}, "name": "block4d_project_bn", "inbound_nodes": [[["block4d_project_conv", 0, 0, {}]]]}, {"class_name": "Add", "config": {"name": "block4d_add", "trainable": false, "dtype": "float32"}, "name": "block4d_add", "inbound_nodes": [[["block4d_project_bn", 0, 0, {}], ["block4c_add", 0, 0, {}]]]}, {"class_name": "Conv2D", "config": {"name": "block5a_expand_conv", "trainable": false, "dtype": "float32", "filters": 624, "kernel_size": [1, 1], "strides": [1, 1], "padding": "same", "data_format": "channels_last", "dilation_rate": [1, 1], "groups": 1, "activation": "linear", "use_bias": false, "kernel_initializer": {"class_name": "VarianceScaling", "config": {"scale": 2.0, "mode": "fan_out", "distribution": "truncated_normal", "seed": null}}, "bias_initializer": {"class_name": "Zeros", "config": {}}, "kernel_regularizer": null, "bias_regularizer": null, "activity_regularizer": null, "kernel_constraint": null, "bias_constraint": null}, "name": "block5a_expand_conv", "inbound_nodes": [[["block4d_add", 0, 0, {}]]]}, {"class_name": "BatchNormalization", "config": {"name": "block5a_expand_bn", "trainable": false, "dtype": "float32", "axis": [3], "momentum": 0.9, "epsilon": 0.001, "center": true, "scale": true, "beta_initializer": {"class_name": "Zeros", "config": {}}, "gamma_initializer": {"class_name": "Ones", "config": {}}, "moving_mean_initializer": {"class_name": "Zeros", "config": {}}, "moving_variance_initializer": {"class_name": "Ones", "config": {}}, "beta_regularizer": null, "gamma_regularizer": null, "beta_constraint": null, "gamma_constraint": null}, "name": "block5a_expand_bn", "inbound_nodes": [[["block5a_expand_conv", 0, 0, {}]]]}, {"class_name": "Activation", "config": {"name": "block5a_expand_activation", "trainable": false, "dtype": "float32", "activation": "swish"}, "name": "block5a_expand_activation", "inbound_nodes": [[["block5a_expand_bn", 0, 0, {}]]]}, {"class_name": "DepthwiseConv2D", "config": {"name": "block5a_dwconv2", "trainable": false, "dtype": "float32", "kernel_size": [3, 3], "strides": [1, 1], "padding": "same", "data_format": "channels_last", "dilation_rate": [1, 1], "groups": 1, "activation": "linear", "use_bias": false, "bias_initializer": {"class_name": "Zeros", "config": {}}, "bias_regularizer": null, "activity_regularizer": null, "bias_constraint": null, "depth_multiplier": 1, "depthwise_initializer": {"class_name": "VarianceScaling", "config": {"scale": 2.0, "mode": "fan_out", "distribution": "truncated_normal", "seed": null}}, "depthwise_regularizer": null, "depthwise_constraint": null}, "name": "block5a_dwconv2", "inbound_nodes": [[["block5a_expand_activation", 0, 0, {}]]]}, {"class_name": "BatchNormalization", "config": {"name": "block5a_bn", "trainable": false, "dtype": "float32", "axis": [3], "momentum": 0.9, "epsilon": 0.001, "center": true, "scale": true, "beta_initializer": {"class_name": "Zeros", "config": {}}, "gamma_initializer": {"class_name": "Ones", "config": {}}, "moving_mean_initializer": {"class_name": "Zeros", "config": {}}, "moving_variance_initializer": {"class_name": "Ones", "config": {}}, "beta_regularizer": null, "gamma_regularizer": null, "beta_constraint": null, "gamma_constraint": null}, "name": "block5a_bn", "inbound_nodes": [[["block5a_dwconv2", 0, 0, {}]]]}, {"class_name": "Activation", "config": {"name": "block5a_activation", "trainable": false, "dtype": "float32", "activation": "swish"}, "name": "block5a_activation", "inbound_nodes": [[["block5a_bn", 0, 0, {}]]]}, {"class_name": "GlobalAveragePooling2D", "config": {"name": "block5a_se_squeeze", "trainable": false, "dtype": "float32", "data_format": "channels_last", "keepdims": false}, "name": "block5a_se_squeeze", "inbound_nodes": [[["block5a_activation", 0, 0, {}]]]}, {"class_name": "Reshape", "config": {"name": "block5a_se_reshape", "trainable": false, "dtype": "float32", "target_shape": [1, 1, 624]}, "name": "block5a_se_reshape", "inbound_nodes": [[["block5a_se_squeeze", 0, 0, {}]]]}, {"class_name": "Conv2D", "config": {"name": "block5a_se_reduce", "trainable": false, "dtype": "float32", "filters": 26, "kernel_size": [1, 1], "strides": [1, 1], "padding": "same", "data_format": "channels_last", "dilation_rate": [1, 1], "groups": 1, "activation": "swish", "use_bias": true, "kernel_initializer": {"class_name": "VarianceScaling", "config": {"scale": 2.0, "mode": "fan_out", "distribution": "truncated_normal", "seed": null}}, "bias_initializer": {"class_name": "Zeros", "config": {}}, "kernel_regularizer": null, "bias_regularizer": null, "activity_regularizer": null, "kernel_constraint": null, "bias_constraint": null}, "name": "block5a_se_reduce", "inbound_nodes": [[["block5a_se_reshape", 0, 0, {}]]]}, {"class_name": "Conv2D", "config": {"name": "block5a_se_expand", "trainable": false, "dtype": "float32", "filters": 624, "kernel_size": [1, 1], "strides": [1, 1], "padding": "same", "data_format": "channels_last", "dilation_rate": [1, 1], "groups": 1, "activation": "sigmoid", "use_bias": true, "kernel_initializer": {"class_name": "VarianceScaling", "config": {"scale": 2.0, "mode": "fan_out", "distribution": "truncated_normal", "seed": null}}, "bias_initializer": {"class_name": "Zeros", "config": {}}, "kernel_regularizer": null, "bias_regularizer": null, "activity_regularizer": null, "kernel_constraint": null, "bias_constraint": null}, "name": "block5a_se_expand", "inbound_nodes": [[["block5a_se_reduce", 0, 0, {}]]]}, {"class_name": "Multiply", "config": {"name": "block5a_se_excite", "trainable": false, "dtype": "float32"}, "name": "block5a_se_excite", "inbound_nodes": [[["block5a_activation", 0, 0, {}], ["block5a_se_expand", 0, 0, {}]]]}, {"class_name": "Conv2D", "config": {"name": "block5a_project_conv", "trainable": false, "dtype": "float32", "filters": 120, "kernel_size": [1, 1], "strides": [1, 1], "padding": "same", "data_format": "channels_last", "dilation_rate": [1, 1], "groups": 1, "activation": "linear", "use_bias": false, "kernel_initializer": {"class_name": "VarianceScaling", "config": {"scale": 2.0, "mode": "fan_out", "distribution": "truncated_normal", "seed": null}}, "bias_initializer": {"class_name": "Zeros", "config": {}}, "kernel_regularizer": null, "bias_regularizer": null, "activity_regularizer": null, "kernel_constraint": null, "bias_constraint": null}, "name": "block5a_project_conv", "inbound_nodes": [[["block5a_se_excite", 0, 0, {}]]]}, {"class_name": "BatchNormalization", "config": {"name": "block5a_project_bn", "trainable": false, "dtype": "float32", "axis": [3], "momentum": 0.9, "epsilon": 0.001, "center": true, "scale": true, "beta_initializer": {"class_name": "Zeros", "config": {}}, "gamma_initializer": {"class_name": "Ones", "config": {}}, "moving_mean_initializer": {"class_name": "Zeros", "config": {}}, "moving_variance_initializer": {"class_name": "Ones", "config": {}}, "beta_regularizer": null, "gamma_regularizer": null, "beta_constraint": null, "gamma_constraint": null}, "name": "block5a_project_bn", "inbound_nodes": [[["block5a_project_conv", 0, 0, {}]]]}, {"class_name": "Conv2D", "config": {"name": "block5b_expand_conv", "trainable": false, "dtype": "float32", "filters": 720, "kernel_size": [1, 1], "strides": [1, 1], "padding": "same", "data_format": "channels_last", "dilation_rate": [1, 1], "groups": 1, "activation": "linear", "use_bias": false, "kernel_initializer": {"class_name": "VarianceScaling", "config": {"scale": 2.0, "mode": "fan_out", "distribution": "truncated_normal", "seed": null}}, "bias_initializer": {"class_name": "Zeros", "config": {}}, "kernel_regularizer": null, "bias_regularizer": null, "activity_regularizer": null, "kernel_constraint": null, "bias_constraint": null}, "name": "block5b_expand_conv", "inbound_nodes": [[["block5a_project_bn", 0, 0, {}]]]}, {"class_name": "BatchNormalization", "config": {"name": "block5b_expand_bn", "trainable": false, "dtype": "float32", "axis": [3], "momentum": 0.9, "epsilon": 0.001, "center": true, "scale": true, "beta_initializer": {"class_name": "Zeros", "config": {}}, "gamma_initializer": {"class_name": "Ones", "config": {}}, "moving_mean_initializer": {"class_name": "Zeros", "config": {}}, "moving_variance_initializer": {"class_name": "Ones", "config": {}}, "beta_regularizer": null, "gamma_regularizer": null, "beta_constraint": null, "gamma_constraint": null}, "name": "block5b_expand_bn", "inbound_nodes": [[["block5b_expand_conv", 0, 0, {}]]]}, {"class_name": "Activation", "config": {"name": "block5b_expand_activation", "trainable": false, "dtype": "float32", "activation": "swish"}, "name": "block5b_expand_activation", "inbound_nodes": [[["block5b_expand_bn", 0, 0, {}]]]}, {"class_name": "DepthwiseConv2D", "config": {"name": "block5b_dwconv2", "trainable": false, "dtype": "float32", "kernel_size": [3, 3], "strides": [1, 1], "padding": "same", "data_format": "channels_last", "dilation_rate": [1, 1], "groups": 1, "activation": "linear", "use_bias": false, "bias_initializer": {"class_name": "Zeros", "config": {}}, "bias_regularizer": null, "activity_regularizer": null, "bias_constraint": null, "depth_multiplier": 1, "depthwise_initializer": {"class_name": "VarianceScaling", "config": {"scale": 2.0, "mode": "fan_out", "distribution": "truncated_normal", "seed": null}}, "depthwise_regularizer": null, "depthwise_constraint": null}, "name": "block5b_dwconv2", "inbound_nodes": [[["block5b_expand_activation", 0, 0, {}]]]}, {"class_name": "BatchNormalization", "config": {"name": "block5b_bn", "trainable": false, "dtype": "float32", "axis": [3], "momentum": 0.9, "epsilon": 0.001, "center": true, "scale": true, "beta_initializer": {"class_name": "Zeros", "config": {}}, "gamma_initializer": {"class_name": "Ones", "config": {}}, "moving_mean_initializer": {"class_name": "Zeros", "config": {}}, "moving_variance_initializer": {"class_name": "Ones", "config": {}}, "beta_regularizer": null, "gamma_regularizer": null, "beta_constraint": null, "gamma_constraint": null}, "name": "block5b_bn", "inbound_nodes": [[["block5b_dwconv2", 0, 0, {}]]]}, {"class_name": "Activation", "config": {"name": "block5b_activation", "trainable": false, "dtype": "float32", "activation": "swish"}, "name": "block5b_activation", "inbound_nodes": [[["block5b_bn", 0, 0, {}]]]}, {"class_name": "GlobalAveragePooling2D", "config": {"name": "block5b_se_squeeze", "trainable": false, "dtype": "float32", "data_format": "channels_last", "keepdims": false}, "name": "block5b_se_squeeze", "inbound_nodes": [[["block5b_activation", 0, 0, {}]]]}, {"class_name": "Reshape", "config": {"name": "block5b_se_reshape", "trainable": false, "dtype": "float32", "target_shape": [1, 1, 720]}, "name": "block5b_se_reshape", "inbound_nodes": [[["block5b_se_squeeze", 0, 0, {}]]]}, {"class_name": "Conv2D", "config": {"name": "block5b_se_reduce", "trainable": false, "dtype": "float32", "filters": 30, "kernel_size": [1, 1], "strides": [1, 1], "padding": "same", "data_format": "channels_last", "dilation_rate": [1, 1], "groups": 1, "activation": "swish", "use_bias": true, "kernel_initializer": {"class_name": "VarianceScaling", "config": {"scale": 2.0, "mode": "fan_out", "distribution": "truncated_normal", "seed": null}}, "bias_initializer": {"class_name": "Zeros", "config": {}}, "kernel_regularizer": null, "bias_regularizer": null, "activity_regularizer": null, "kernel_constraint": null, "bias_constraint": null}, "name": "block5b_se_reduce", "inbound_nodes": [[["block5b_se_reshape", 0, 0, {}]]]}, {"class_name": "Conv2D", "config": {"name": "block5b_se_expand", "trainable": false, "dtype": "float32", "filters": 720, "kernel_size": [1, 1], "strides": [1, 1], "padding": "same", "data_format": "channels_last", "dilation_rate": [1, 1], "groups": 1, "activation": "sigmoid", "use_bias": true, "kernel_initializer": {"class_name": "VarianceScaling", "config": {"scale": 2.0, "mode": "fan_out", "distribution": "truncated_normal", "seed": null}}, "bias_initializer": {"class_name": "Zeros", "config": {}}, "kernel_regularizer": null, "bias_regularizer": null, "activity_regularizer": null, "kernel_constraint": null, "bias_constraint": null}, "name": "block5b_se_expand", "inbound_nodes": [[["block5b_se_reduce", 0, 0, {}]]]}, {"class_name": "Multiply", "config": {"name": "block5b_se_excite", "trainable": false, "dtype": "float32"}, "name": "block5b_se_excite", "inbound_nodes": [[["block5b_activation", 0, 0, {}], ["block5b_se_expand", 0, 0, {}]]]}, {"class_name": "Conv2D", "config": {"name": "block5b_project_conv", "trainable": false, "dtype": "float32", "filters": 120, "kernel_size": [1, 1], "strides": [1, 1], "padding": "same", "data_format": "channels_last", "dilation_rate": [1, 1], "groups": 1, "activation": "linear", "use_bias": false, "kernel_initializer": {"class_name": "VarianceScaling", "config": {"scale": 2.0, "mode": "fan_out", "distribution": "truncated_normal", "seed": null}}, "bias_initializer": {"class_name": "Zeros", "config": {}}, "kernel_regularizer": null, "bias_regularizer": null, "activity_regularizer": null, "kernel_constraint": null, "bias_constraint": null}, "name": "block5b_project_conv", "inbound_nodes": [[["block5b_se_excite", 0, 0, {}]]]}, {"class_name": "BatchNormalization", "config": {"name": "block5b_project_bn", "trainable": false, "dtype": "float32", "axis": [3], "momentum": 0.9, "epsilon": 0.001, "center": true, "scale": true, "beta_initializer": {"class_name": "Zeros", "config": {}}, "gamma_initializer": {"class_name": "Ones", "config": {}}, "moving_mean_initializer": {"class_name": "Zeros", "config": {}}, "moving_variance_initializer": {"class_name": "Ones", "config": {}}, "beta_regularizer": null, "gamma_regularizer": null, "beta_constraint": null, "gamma_constraint": null}, "name": "block5b_project_bn", "inbound_nodes": [[["block5b_project_conv", 0, 0, {}]]]}, {"class_name": "Add", "config": {"name": "block5b_add", "trainable": false, "dtype": "float32"}, "name": "block5b_add", "inbound_nodes": [[["block5b_project_bn", 0, 0, {}], ["block5a_project_bn", 0, 0, {}]]]}, {"class_name": "Conv2D", "config": {"name": "block5c_expand_conv", "trainable": false, "dtype": "float32", "filters": 720, "kernel_size": [1, 1], "strides": [1, 1], "padding": "same", "data_format": "channels_last", "dilation_rate": [1, 1], "groups": 1, "activation": "linear", "use_bias": false, "kernel_initializer": {"class_name": "VarianceScaling", "config": {"scale": 2.0, "mode": "fan_out", "distribution": "truncated_normal", "seed": null}}, "bias_initializer": {"class_name": "Zeros", "config": {}}, "kernel_regularizer": null, "bias_regularizer": null, "activity_regularizer": null, "kernel_constraint": null, "bias_constraint": null}, "name": "block5c_expand_conv", "inbound_nodes": [[["block5b_add", 0, 0, {}]]]}, {"class_name": "BatchNormalization", "config": {"name": "block5c_expand_bn", "trainable": false, "dtype": "float32", "axis": [3], "momentum": 0.9, "epsilon": 0.001, "center": true, "scale": true, "beta_initializer": {"class_name": "Zeros", "config": {}}, "gamma_initializer": {"class_name": "Ones", "config": {}}, "moving_mean_initializer": {"class_name": "Zeros", "config": {}}, "moving_variance_initializer": {"class_name": "Ones", "config": {}}, "beta_regularizer": null, "gamma_regularizer": null, "beta_constraint": null, "gamma_constraint": null}, "name": "block5c_expand_bn", "inbound_nodes": [[["block5c_expand_conv", 0, 0, {}]]]}, {"class_name": "Activation", "config": {"name": "block5c_expand_activation", "trainable": false, "dtype": "float32", "activation": "swish"}, "name": "block5c_expand_activation", "inbound_nodes": [[["block5c_expand_bn", 0, 0, {}]]]}, {"class_name": "DepthwiseConv2D", "config": {"name": "block5c_dwconv2", "trainable": false, "dtype": "float32", "kernel_size": [3, 3], "strides": [1, 1], "padding": "same", "data_format": "channels_last", "dilation_rate": [1, 1], "groups": 1, "activation": "linear", "use_bias": false, "bias_initializer": {"class_name": "Zeros", "config": {}}, "bias_regularizer": null, "activity_regularizer": null, "bias_constraint": null, "depth_multiplier": 1, "depthwise_initializer": {"class_name": "VarianceScaling", "config": {"scale": 2.0, "mode": "fan_out", "distribution": "truncated_normal", "seed": null}}, "depthwise_regularizer": null, "depthwise_constraint": null}, "name": "block5c_dwconv2", "inbound_nodes": [[["block5c_expand_activation", 0, 0, {}]]]}, {"class_name": "BatchNormalization", "config": {"name": "block5c_bn", "trainable": false, "dtype": "float32", "axis": [3], "momentum": 0.9, "epsilon": 0.001, "center": true, "scale": true, "beta_initializer": {"class_name": "Zeros", "config": {}}, "gamma_initializer": {"class_name": "Ones", "config": {}}, "moving_mean_initializer": {"class_name": "Zeros", "config": {}}, "moving_variance_initializer": {"class_name": "Ones", "config": {}}, "beta_regularizer": null, "gamma_regularizer": null, "beta_constraint": null, "gamma_constraint": null}, "name": "block5c_bn", "inbound_nodes": [[["block5c_dwconv2", 0, 0, {}]]]}, {"class_name": "Activation", "config": {"name": "block5c_activation", "trainable": false, "dtype": "float32", "activation": "swish"}, "name": "block5c_activation", "inbound_nodes": [[["block5c_bn", 0, 0, {}]]]}, {"class_name": "GlobalAveragePooling2D", "config": {"name": "block5c_se_squeeze", "trainable": false, "dtype": "float32", "data_format": "channels_last", "keepdims": false}, "name": "block5c_se_squeeze", "inbound_nodes": [[["block5c_activation", 0, 0, {}]]]}, {"class_name": "Reshape", "config": {"name": "block5c_se_reshape", "trainable": false, "dtype": "float32", "target_shape": [1, 1, 720]}, "name": "block5c_se_reshape", "inbound_nodes": [[["block5c_se_squeeze", 0, 0, {}]]]}, {"class_name": "Conv2D", "config": {"name": "block5c_se_reduce", "trainable": false, "dtype": "float32", "filters": 30, "kernel_size": [1, 1], "strides": [1, 1], "padding": "same", "data_format": "channels_last", "dilation_rate": [1, 1], "groups": 1, "activation": "swish", "use_bias": true, "kernel_initializer": {"class_name": "VarianceScaling", "config": {"scale": 2.0, "mode": "fan_out", "distribution": "truncated_normal", "seed": null}}, "bias_initializer": {"class_name": "Zeros", "config": {}}, "kernel_regularizer": null, "bias_regularizer": null, "activity_regularizer": null, "kernel_constraint": null, "bias_constraint": null}, "name": "block5c_se_reduce", "inbound_nodes": [[["block5c_se_reshape", 0, 0, {}]]]}, {"class_name": "Conv2D", "config": {"name": "block5c_se_expand", "trainable": false, "dtype": "float32", "filters": 720, "kernel_size": [1, 1], "strides": [1, 1], "padding": "same", "data_format": "channels_last", "dilation_rate": [1, 1], "groups": 1, "activation": "sigmoid", "use_bias": true, "kernel_initializer": {"class_name": "VarianceScaling", "config": {"scale": 2.0, "mode": "fan_out", "distribution": "truncated_normal", "seed": null}}, "bias_initializer": {"class_name": "Zeros", "config": {}}, "kernel_regularizer": null, "bias_regularizer": null, "activity_regularizer": null, "kernel_constraint": null, "bias_constraint": null}, "name": "block5c_se_expand", "inbound_nodes": [[["block5c_se_reduce", 0, 0, {}]]]}, {"class_name": "Multiply", "config": {"name": "block5c_se_excite", "trainable": false, "dtype": "float32"}, "name": "block5c_se_excite", "inbound_nodes": [[["block5c_activation", 0, 0, {}], ["block5c_se_expand", 0, 0, {}]]]}, {"class_name": "Conv2D", "config": {"name": "block5c_project_conv", "trainable": false, "dtype": "float32", "filters": 120, "kernel_size": [1, 1], "strides": [1, 1], "padding": "same", "data_format": "channels_last", "dilation_rate": [1, 1], "groups": 1, "activation": "linear", "use_bias": false, "kernel_initializer": {"class_name": "VarianceScaling", "config": {"scale": 2.0, "mode": "fan_out", "distribution": "truncated_normal", "seed": null}}, "bias_initializer": {"class_name": "Zeros", "config": {}}, "kernel_regularizer": null, "bias_regularizer": null, "activity_regularizer": null, "kernel_constraint": null, "bias_constraint": null}, "name": "block5c_project_conv", "inbound_nodes": [[["block5c_se_excite", 0, 0, {}]]]}, {"class_name": "BatchNormalization", "config": {"name": "block5c_project_bn", "trainable": false, "dtype": "float32", "axis": [3], "momentum": 0.9, "epsilon": 0.001, "center": true, "scale": true, "beta_initializer": {"class_name": "Zeros", "config": {}}, "gamma_initializer": {"class_name": "Ones", "config": {}}, "moving_mean_initializer": {"class_name": "Zeros", "config": {}}, "moving_variance_initializer": {"class_name": "Ones", "config": {}}, "beta_regularizer": null, "gamma_regularizer": null, "beta_constraint": null, "gamma_constraint": null}, "name": "block5c_project_bn", "inbound_nodes": [[["block5c_project_conv", 0, 0, {}]]]}, {"class_name": "Add", "config": {"name": "block5c_add", "trainable": false, "dtype": "float32"}, "name": "block5c_add", "inbound_nodes": [[["block5c_project_bn", 0, 0, {}], ["block5b_add", 0, 0, {}]]]}, {"class_name": "Conv2D", "config": {"name": "block5d_expand_conv", "trainable": false, "dtype": "float32", "filters": 720, "kernel_size": [1, 1], "strides": [1, 1], "padding": "same", "data_format": "channels_last", "dilation_rate": [1, 1], "groups": 1, "activation": "linear", "use_bias": false, "kernel_initializer": {"class_name": "VarianceScaling", "config": {"scale": 2.0, "mode": "fan_out", "distribution": "truncated_normal", "seed": null}}, "bias_initializer": {"class_name": "Zeros", "config": {}}, "kernel_regularizer": null, "bias_regularizer": null, "activity_regularizer": null, "kernel_constraint": null, "bias_constraint": null}, "name": "block5d_expand_conv", "inbound_nodes": [[["block5c_add", 0, 0, {}]]]}, {"class_name": "BatchNormalization", "config": {"name": "block5d_expand_bn", "trainable": false, "dtype": "float32", "axis": [3], "momentum": 0.9, "epsilon": 0.001, "center": true, "scale": true, "beta_initializer": {"class_name": "Zeros", "config": {}}, "gamma_initializer": {"class_name": "Ones", "config": {}}, "moving_mean_initializer": {"class_name": "Zeros", "config": {}}, "moving_variance_initializer": {"class_name": "Ones", "config": {}}, "beta_regularizer": null, "gamma_regularizer": null, "beta_constraint": null, "gamma_constraint": null}, "name": "block5d_expand_bn", "inbound_nodes": [[["block5d_expand_conv", 0, 0, {}]]]}, {"class_name": "Activation", "config": {"name": "block5d_expand_activation", "trainable": false, "dtype": "float32", "activation": "swish"}, "name": "block5d_expand_activation", "inbound_nodes": [[["block5d_expand_bn", 0, 0, {}]]]}, {"class_name": "DepthwiseConv2D", "config": {"name": "block5d_dwconv2", "trainable": false, "dtype": "float32", "kernel_size": [3, 3], "strides": [1, 1], "padding": "same", "data_format": "channels_last", "dilation_rate": [1, 1], "groups": 1, "activation": "linear", "use_bias": false, "bias_initializer": {"class_name": "Zeros", "config": {}}, "bias_regularizer": null, "activity_regularizer": null, "bias_constraint": null, "depth_multiplier": 1, "depthwise_initializer": {"class_name": "VarianceScaling", "config": {"scale": 2.0, "mode": "fan_out", "distribution": "truncated_normal", "seed": null}}, "depthwise_regularizer": null, "depthwise_constraint": null}, "name": "block5d_dwconv2", "inbound_nodes": [[["block5d_expand_activation", 0, 0, {}]]]}, {"class_name": "BatchNormalization", "config": {"name": "block5d_bn", "trainable": false, "dtype": "float32", "axis": [3], "momentum": 0.9, "epsilon": 0.001, "center": true, "scale": true, "beta_initializer": {"class_name": "Zeros", "config": {}}, "gamma_initializer": {"class_name": "Ones", "config": {}}, "moving_mean_initializer": {"class_name": "Zeros", "config": {}}, "moving_variance_initializer": {"class_name": "Ones", "config": {}}, "beta_regularizer": null, "gamma_regularizer": null, "beta_constraint": null, "gamma_constraint": null}, "name": "block5d_bn", "inbound_nodes": [[["block5d_dwconv2", 0, 0, {}]]]}, {"class_name": "Activation", "config": {"name": "block5d_activation", "trainable": false, "dtype": "float32", "activation": "swish"}, "name": "block5d_activation", "inbound_nodes": [[["block5d_bn", 0, 0, {}]]]}, {"class_name": "GlobalAveragePooling2D", "config": {"name": "block5d_se_squeeze", "trainable": false, "dtype": "float32", "data_format": "channels_last", "keepdims": false}, "name": "block5d_se_squeeze", "inbound_nodes": [[["block5d_activation", 0, 0, {}]]]}, {"class_name": "Reshape", "config": {"name": "block5d_se_reshape", "trainable": false, "dtype": "float32", "target_shape": [1, 1, 720]}, "name": "block5d_se_reshape", "inbound_nodes": [[["block5d_se_squeeze", 0, 0, {}]]]}, {"class_name": "Conv2D", "config": {"name": "block5d_se_reduce", "trainable": false, "dtype": "float32", "filters": 30, "kernel_size": [1, 1], "strides": [1, 1], "padding": "same", "data_format": "channels_last", "dilation_rate": [1, 1], "groups": 1, "activation": "swish", "use_bias": true, "kernel_initializer": {"class_name": "VarianceScaling", "config": {"scale": 2.0, "mode": "fan_out", "distribution": "truncated_normal", "seed": null}}, "bias_initializer": {"class_name": "Zeros", "config": {}}, "kernel_regularizer": null, "bias_regularizer": null, "activity_regularizer": null, "kernel_constraint": null, "bias_constraint": null}, "name": "block5d_se_reduce", "inbound_nodes": [[["block5d_se_reshape", 0, 0, {}]]]}, {"class_name": "Conv2D", "config": {"name": "block5d_se_expand", "trainable": false, "dtype": "float32", "filters": 720, "kernel_size": [1, 1], "strides": [1, 1], "padding": "same", "data_format": "channels_last", "dilation_rate": [1, 1], "groups": 1, "activation": "sigmoid", "use_bias": true, "kernel_initializer": {"class_name": "VarianceScaling", "config": {"scale": 2.0, "mode": "fan_out", "distribution": "truncated_normal", "seed": null}}, "bias_initializer": {"class_name": "Zeros", "config": {}}, "kernel_regularizer": null, "bias_regularizer": null, "activity_regularizer": null, "kernel_constraint": null, "bias_constraint": null}, "name": "block5d_se_expand", "inbound_nodes": [[["block5d_se_reduce", 0, 0, {}]]]}, {"class_name": "Multiply", "config": {"name": "block5d_se_excite", "trainable": false, "dtype": "float32"}, "name": "block5d_se_excite", "inbound_nodes": [[["block5d_activation", 0, 0, {}], ["block5d_se_expand", 0, 0, {}]]]}, {"class_name": "Conv2D", "config": {"name": "block5d_project_conv", "trainable": false, "dtype": "float32", "filters": 120, "kernel_size": [1, 1], "strides": [1, 1], "padding": "same", "data_format": "channels_last", "dilation_rate": [1, 1], "groups": 1, "activation": "linear", "use_bias": false, "kernel_initializer": {"class_name": "VarianceScaling", "config": {"scale": 2.0, "mode": "fan_out", "distribution": "truncated_normal", "seed": null}}, "bias_initializer": {"class_name": "Zeros", "config": {}}, "kernel_regularizer": null, "bias_regularizer": null, "activity_regularizer": null, "kernel_constraint": null, "bias_constraint": null}, "name": "block5d_project_conv", "inbound_nodes": [[["block5d_se_excite", 0, 0, {}]]]}, {"class_name": "BatchNormalization", "config": {"name": "block5d_project_bn", "trainable": false, "dtype": "float32", "axis": [3], "momentum": 0.9, "epsilon": 0.001, "center": true, "scale": true, "beta_initializer": {"class_name": "Zeros", "config": {}}, "gamma_initializer": {"class_name": "Ones", "config": {}}, "moving_mean_initializer": {"class_name": "Zeros", "config": {}}, "moving_variance_initializer": {"class_name": "Ones", "config": {}}, "beta_regularizer": null, "gamma_regularizer": null, "beta_constraint": null, "gamma_constraint": null}, "name": "block5d_project_bn", "inbound_nodes": [[["block5d_project_conv", 0, 0, {}]]]}, {"class_name": "Add", "config": {"name": "block5d_add", "trainable": false, "dtype": "float32"}, "name": "block5d_add", "inbound_nodes": [[["block5d_project_bn", 0, 0, {}], ["block5c_add", 0, 0, {}]]]}, {"class_name": "Conv2D", "config": {"name": "block5e_expand_conv", "trainable": false, "dtype": "float32", "filters": 720, "kernel_size": [1, 1], "strides": [1, 1], "padding": "same", "data_format": "channels_last", "dilation_rate": [1, 1], "groups": 1, "activation": "linear", "use_bias": false, "kernel_initializer": {"class_name": "VarianceScaling", "config": {"scale": 2.0, "mode": "fan_out", "distribution": "truncated_normal", "seed": null}}, "bias_initializer": {"class_name": "Zeros", "config": {}}, "kernel_regularizer": null, "bias_regularizer": null, "activity_regularizer": null, "kernel_constraint": null, "bias_constraint": null}, "name": "block5e_expand_conv", "inbound_nodes": [[["block5d_add", 0, 0, {}]]]}, {"class_name": "BatchNormalization", "config": {"name": "block5e_expand_bn", "trainable": false, "dtype": "float32", "axis": [3], "momentum": 0.9, "epsilon": 0.001, "center": true, "scale": true, "beta_initializer": {"class_name": "Zeros", "config": {}}, "gamma_initializer": {"class_name": "Ones", "config": {}}, "moving_mean_initializer": {"class_name": "Zeros", "config": {}}, "moving_variance_initializer": {"class_name": "Ones", "config": {}}, "beta_regularizer": null, "gamma_regularizer": null, "beta_constraint": null, "gamma_constraint": null}, "name": "block5e_expand_bn", "inbound_nodes": [[["block5e_expand_conv", 0, 0, {}]]]}, {"class_name": "Activation", "config": {"name": "block5e_expand_activation", "trainable": false, "dtype": "float32", "activation": "swish"}, "name": "block5e_expand_activation", "inbound_nodes": [[["block5e_expand_bn", 0, 0, {}]]]}, {"class_name": "DepthwiseConv2D", "config": {"name": "block5e_dwconv2", "trainable": false, "dtype": "float32", "kernel_size": [3, 3], "strides": [1, 1], "padding": "same", "data_format": "channels_last", "dilation_rate": [1, 1], "groups": 1, "activation": "linear", "use_bias": false, "bias_initializer": {"class_name": "Zeros", "config": {}}, "bias_regularizer": null, "activity_regularizer": null, "bias_constraint": null, "depth_multiplier": 1, "depthwise_initializer": {"class_name": "VarianceScaling", "config": {"scale": 2.0, "mode": "fan_out", "distribution": "truncated_normal", "seed": null}}, "depthwise_regularizer": null, "depthwise_constraint": null}, "name": "block5e_dwconv2", "inbound_nodes": [[["block5e_expand_activation", 0, 0, {}]]]}, {"class_name": "BatchNormalization", "config": {"name": "block5e_bn", "trainable": false, "dtype": "float32", "axis": [3], "momentum": 0.9, "epsilon": 0.001, "center": true, "scale": true, "beta_initializer": {"class_name": "Zeros", "config": {}}, "gamma_initializer": {"class_name": "Ones", "config": {}}, "moving_mean_initializer": {"class_name": "Zeros", "config": {}}, "moving_variance_initializer": {"class_name": "Ones", "config": {}}, "beta_regularizer": null, "gamma_regularizer": null, "beta_constraint": null, "gamma_constraint": null}, "name": "block5e_bn", "inbound_nodes": [[["block5e_dwconv2", 0, 0, {}]]]}, {"class_name": "Activation", "config": {"name": "block5e_activation", "trainable": false, "dtype": "float32", "activation": "swish"}, "name": "block5e_activation", "inbound_nodes": [[["block5e_bn", 0, 0, {}]]]}, {"class_name": "GlobalAveragePooling2D", "config": {"name": "block5e_se_squeeze", "trainable": false, "dtype": "float32", "data_format": "channels_last", "keepdims": false}, "name": "block5e_se_squeeze", "inbound_nodes": [[["block5e_activation", 0, 0, {}]]]}, {"class_name": "Reshape", "config": {"name": "block5e_se_reshape", "trainable": false, "dtype": "float32", "target_shape": [1, 1, 720]}, "name": "block5e_se_reshape", "inbound_nodes": [[["block5e_se_squeeze", 0, 0, {}]]]}, {"class_name": "Conv2D", "config": {"name": "block5e_se_reduce", "trainable": false, "dtype": "float32", "filters": 30, "kernel_size": [1, 1], "strides": [1, 1], "padding": "same", "data_format": "channels_last", "dilation_rate": [1, 1], "groups": 1, "activation": "swish", "use_bias": true, "kernel_initializer": {"class_name": "VarianceScaling", "config": {"scale": 2.0, "mode": "fan_out", "distribution": "truncated_normal", "seed": null}}, "bias_initializer": {"class_name": "Zeros", "config": {}}, "kernel_regularizer": null, "bias_regularizer": null, "activity_regularizer": null, "kernel_constraint": null, "bias_constraint": null}, "name": "block5e_se_reduce", "inbound_nodes": [[["block5e_se_reshape", 0, 0, {}]]]}, {"class_name": "Conv2D", "config": {"name": "block5e_se_expand", "trainable": false, "dtype": "float32", "filters": 720, "kernel_size": [1, 1], "strides": [1, 1], "padding": "same", "data_format": "channels_last", "dilation_rate": [1, 1], "groups": 1, "activation": "sigmoid", "use_bias": true, "kernel_initializer": {"class_name": "VarianceScaling", "config": {"scale": 2.0, "mode": "fan_out", "distribution": "truncated_normal", "seed": null}}, "bias_initializer": {"class_name": "Zeros", "config": {}}, "kernel_regularizer": null, "bias_regularizer": null, "activity_regularizer": null, "kernel_constraint": null, "bias_constraint": null}, "name": "block5e_se_expand", "inbound_nodes": [[["block5e_se_reduce", 0, 0, {}]]]}, {"class_name": "Multiply", "config": {"name": "block5e_se_excite", "trainable": false, "dtype": "float32"}, "name": "block5e_se_excite", "inbound_nodes": [[["block5e_activation", 0, 0, {}], ["block5e_se_expand", 0, 0, {}]]]}, {"class_name": "Conv2D", "config": {"name": "block5e_project_conv", "trainable": false, "dtype": "float32", "filters": 120, "kernel_size": [1, 1], "strides": [1, 1], "padding": "same", "data_format": "channels_last", "dilation_rate": [1, 1], "groups": 1, "activation": "linear", "use_bias": false, "kernel_initializer": {"class_name": "VarianceScaling", "config": {"scale": 2.0, "mode": "fan_out", "distribution": "truncated_normal", "seed": null}}, "bias_initializer": {"class_name": "Zeros", "config": {}}, "kernel_regularizer": null, "bias_regularizer": null, "activity_regularizer": null, "kernel_constraint": null, "bias_constraint": null}, "name": "block5e_project_conv", "inbound_nodes": [[["block5e_se_excite", 0, 0, {}]]]}, {"class_name": "BatchNormalization", "config": {"name": "block5e_project_bn", "trainable": false, "dtype": "float32", "axis": [3], "momentum": 0.9, "epsilon": 0.001, "center": true, "scale": true, "beta_initializer": {"class_name": "Zeros", "config": {}}, "gamma_initializer": {"class_name": "Ones", "config": {}}, "moving_mean_initializer": {"class_name": "Zeros", "config": {}}, "moving_variance_initializer": {"class_name": "Ones", "config": {}}, "beta_regularizer": null, "gamma_regularizer": null, "beta_constraint": null, "gamma_constraint": null}, "name": "block5e_project_bn", "inbound_nodes": [[["block5e_project_conv", 0, 0, {}]]]}, {"class_name": "Add", "config": {"name": "block5e_add", "trainable": false, "dtype": "float32"}, "name": "block5e_add", "inbound_nodes": [[["block5e_project_bn", 0, 0, {}], ["block5d_add", 0, 0, {}]]]}, {"class_name": "Conv2D", "config": {"name": "block5f_expand_conv", "trainable": false, "dtype": "float32", "filters": 720, "kernel_size": [1, 1], "strides": [1, 1], "padding": "same", "data_format": "channels_last", "dilation_rate": [1, 1], "groups": 1, "activation": "linear", "use_bias": false, "kernel_initializer": {"class_name": "VarianceScaling", "config": {"scale": 2.0, "mode": "fan_out", "distribution": "truncated_normal", "seed": null}}, "bias_initializer": {"class_name": "Zeros", "config": {}}, "kernel_regularizer": null, "bias_regularizer": null, "activity_regularizer": null, "kernel_constraint": null, "bias_constraint": null}, "name": "block5f_expand_conv", "inbound_nodes": [[["block5e_add", 0, 0, {}]]]}, {"class_name": "BatchNormalization", "config": {"name": "block5f_expand_bn", "trainable": false, "dtype": "float32", "axis": [3], "momentum": 0.9, "epsilon": 0.001, "center": true, "scale": true, "beta_initializer": {"class_name": "Zeros", "config": {}}, "gamma_initializer": {"class_name": "Ones", "config": {}}, "moving_mean_initializer": {"class_name": "Zeros", "config": {}}, "moving_variance_initializer": {"class_name": "Ones", "config": {}}, "beta_regularizer": null, "gamma_regularizer": null, "beta_constraint": null, "gamma_constraint": null}, "name": "block5f_expand_bn", "inbound_nodes": [[["block5f_expand_conv", 0, 0, {}]]]}, {"class_name": "Activation", "config": {"name": "block5f_expand_activation", "trainable": false, "dtype": "float32", "activation": "swish"}, "name": "block5f_expand_activation", "inbound_nodes": [[["block5f_expand_bn", 0, 0, {}]]]}, {"class_name": "DepthwiseConv2D", "config": {"name": "block5f_dwconv2", "trainable": false, "dtype": "float32", "kernel_size": [3, 3], "strides": [1, 1], "padding": "same", "data_format": "channels_last", "dilation_rate": [1, 1], "groups": 1, "activation": "linear", "use_bias": false, "bias_initializer": {"class_name": "Zeros", "config": {}}, "bias_regularizer": null, "activity_regularizer": null, "bias_constraint": null, "depth_multiplier": 1, "depthwise_initializer": {"class_name": "VarianceScaling", "config": {"scale": 2.0, "mode": "fan_out", "distribution": "truncated_normal", "seed": null}}, "depthwise_regularizer": null, "depthwise_constraint": null}, "name": "block5f_dwconv2", "inbound_nodes": [[["block5f_expand_activation", 0, 0, {}]]]}, {"class_name": "BatchNormalization", "config": {"name": "block5f_bn", "trainable": false, "dtype": "float32", "axis": [3], "momentum": 0.9, "epsilon": 0.001, "center": true, "scale": true, "beta_initializer": {"class_name": "Zeros", "config": {}}, "gamma_initializer": {"class_name": "Ones", "config": {}}, "moving_mean_initializer": {"class_name": "Zeros", "config": {}}, "moving_variance_initializer": {"class_name": "Ones", "config": {}}, "beta_regularizer": null, "gamma_regularizer": null, "beta_constraint": null, "gamma_constraint": null}, "name": "block5f_bn", "inbound_nodes": [[["block5f_dwconv2", 0, 0, {}]]]}, {"class_name": "Activation", "config": {"name": "block5f_activation", "trainable": false, "dtype": "float32", "activation": "swish"}, "name": "block5f_activation", "inbound_nodes": [[["block5f_bn", 0, 0, {}]]]}, {"class_name": "GlobalAveragePooling2D", "config": {"name": "block5f_se_squeeze", "trainable": false, "dtype": "float32", "data_format": "channels_last", "keepdims": false}, "name": "block5f_se_squeeze", "inbound_nodes": [[["block5f_activation", 0, 0, {}]]]}, {"class_name": "Reshape", "config": {"name": "block5f_se_reshape", "trainable": false, "dtype": "float32", "target_shape": [1, 1, 720]}, "name": "block5f_se_reshape", "inbound_nodes": [[["block5f_se_squeeze", 0, 0, {}]]]}, {"class_name": "Conv2D", "config": {"name": "block5f_se_reduce", "trainable": false, "dtype": "float32", "filters": 30, "kernel_size": [1, 1], "strides": [1, 1], "padding": "same", "data_format": "channels_last", "dilation_rate": [1, 1], "groups": 1, "activation": "swish", "use_bias": true, "kernel_initializer": {"class_name": "VarianceScaling", "config": {"scale": 2.0, "mode": "fan_out", "distribution": "truncated_normal", "seed": null}}, "bias_initializer": {"class_name": "Zeros", "config": {}}, "kernel_regularizer": null, "bias_regularizer": null, "activity_regularizer": null, "kernel_constraint": null, "bias_constraint": null}, "name": "block5f_se_reduce", "inbound_nodes": [[["block5f_se_reshape", 0, 0, {}]]]}, {"class_name": "Conv2D", "config": {"name": "block5f_se_expand", "trainable": false, "dtype": "float32", "filters": 720, "kernel_size": [1, 1], "strides": [1, 1], "padding": "same", "data_format": "channels_last", "dilation_rate": [1, 1], "groups": 1, "activation": "sigmoid", "use_bias": true, "kernel_initializer": {"class_name": "VarianceScaling", "config": {"scale": 2.0, "mode": "fan_out", "distribution": "truncated_normal", "seed": null}}, "bias_initializer": {"class_name": "Zeros", "config": {}}, "kernel_regularizer": null, "bias_regularizer": null, "activity_regularizer": null, "kernel_constraint": null, "bias_constraint": null}, "name": "block5f_se_expand", "inbound_nodes": [[["block5f_se_reduce", 0, 0, {}]]]}, {"class_name": "Multiply", "config": {"name": "block5f_se_excite", "trainable": false, "dtype": "float32"}, "name": "block5f_se_excite", "inbound_nodes": [[["block5f_activation", 0, 0, {}], ["block5f_se_expand", 0, 0, {}]]]}, {"class_name": "Conv2D", "config": {"name": "block5f_project_conv", "trainable": false, "dtype": "float32", "filters": 120, "kernel_size": [1, 1], "strides": [1, 1], "padding": "same", "data_format": "channels_last", "dilation_rate": [1, 1], "groups": 1, "activation": "linear", "use_bias": false, "kernel_initializer": {"class_name": "VarianceScaling", "config": {"scale": 2.0, "mode": "fan_out", "distribution": "truncated_normal", "seed": null}}, "bias_initializer": {"class_name": "Zeros", "config": {}}, "kernel_regularizer": null, "bias_regularizer": null, "activity_regularizer": null, "kernel_constraint": null, "bias_constraint": null}, "name": "block5f_project_conv", "inbound_nodes": [[["block5f_se_excite", 0, 0, {}]]]}, {"class_name": "BatchNormalization", "config": {"name": "block5f_project_bn", "trainable": false, "dtype": "float32", "axis": [3], "momentum": 0.9, "epsilon": 0.001, "center": true, "scale": true, "beta_initializer": {"class_name": "Zeros", "config": {}}, "gamma_initializer": {"class_name": "Ones", "config": {}}, "moving_mean_initializer": {"class_name": "Zeros", "config": {}}, "moving_variance_initializer": {"class_name": "Ones", "config": {}}, "beta_regularizer": null, "gamma_regularizer": null, "beta_constraint": null, "gamma_constraint": null}, "name": "block5f_project_bn", "inbound_nodes": [[["block5f_project_conv", 0, 0, {}]]]}, {"class_name": "Add", "config": {"name": "block5f_add", "trainable": false, "dtype": "float32"}, "name": "block5f_add", "inbound_nodes": [[["block5f_project_bn", 0, 0, {}], ["block5e_add", 0, 0, {}]]]}, {"class_name": "Conv2D", "config": {"name": "block6a_expand_conv", "trainable": false, "dtype": "float32", "filters": 720, "kernel_size": [1, 1], "strides": [1, 1], "padding": "same", "data_format": "channels_last", "dilation_rate": [1, 1], "groups": 1, "activation": "linear", "use_bias": false, "kernel_initializer": {"class_name": "VarianceScaling", "config": {"scale": 2.0, "mode": "fan_out", "distribution": "truncated_normal", "seed": null}}, "bias_initializer": {"class_name": "Zeros", "config": {}}, "kernel_regularizer": null, "bias_regularizer": null, "activity_regularizer": null, "kernel_constraint": null, "bias_constraint": null}, "name": "block6a_expand_conv", "inbound_nodes": [[["block5f_add", 0, 0, {}]]]}, {"class_name": "BatchNormalization", "config": {"name": "block6a_expand_bn", "trainable": false, "dtype": "float32", "axis": [3], "momentum": 0.9, "epsilon": 0.001, "center": true, "scale": true, "beta_initializer": {"class_name": "Zeros", "config": {}}, "gamma_initializer": {"class_name": "Ones", "config": {}}, "moving_mean_initializer": {"class_name": "Zeros", "config": {}}, "moving_variance_initializer": {"class_name": "Ones", "config": {}}, "beta_regularizer": null, "gamma_regularizer": null, "beta_constraint": null, "gamma_constraint": null}, "name": "block6a_expand_bn", "inbound_nodes": [[["block6a_expand_conv", 0, 0, {}]]]}, {"class_name": "Activation", "config": {"name": "block6a_expand_activation", "trainable": false, "dtype": "float32", "activation": "swish"}, "name": "block6a_expand_activation", "inbound_nodes": [[["block6a_expand_bn", 0, 0, {}]]]}, {"class_name": "DepthwiseConv2D", "config": {"name": "block6a_dwconv2", "trainable": false, "dtype": "float32", "kernel_size": [3, 3], "strides": [2, 2], "padding": "same", "data_format": "channels_last", "dilation_rate": [1, 1], "groups": 1, "activation": "linear", "use_bias": false, "bias_initializer": {"class_name": "Zeros", "config": {}}, "bias_regularizer": null, "activity_regularizer": null, "bias_constraint": null, "depth_multiplier": 1, "depthwise_initializer": {"class_name": "VarianceScaling", "config": {"scale": 2.0, "mode": "fan_out", "distribution": "truncated_normal", "seed": null}}, "depthwise_regularizer": null, "depthwise_constraint": null}, "name": "block6a_dwconv2", "inbound_nodes": [[["block6a_expand_activation", 0, 0, {}]]]}, {"class_name": "BatchNormalization", "config": {"name": "block6a_bn", "trainable": false, "dtype": "float32", "axis": [3], "momentum": 0.9, "epsilon": 0.001, "center": true, "scale": true, "beta_initializer": {"class_name": "Zeros", "config": {}}, "gamma_initializer": {"class_name": "Ones", "config": {}}, "moving_mean_initializer": {"class_name": "Zeros", "config": {}}, "moving_variance_initializer": {"class_name": "Ones", "config": {}}, "beta_regularizer": null, "gamma_regularizer": null, "beta_constraint": null, "gamma_constraint": null}, "name": "block6a_bn", "inbound_nodes": [[["block6a_dwconv2", 0, 0, {}]]]}, {"class_name": "Activation", "config": {"name": "block6a_activation", "trainable": false, "dtype": "float32", "activation": "swish"}, "name": "block6a_activation", "inbound_nodes": [[["block6a_bn", 0, 0, {}]]]}, {"class_name": "GlobalAveragePooling2D", "config": {"name": "block6a_se_squeeze", "trainable": false, "dtype": "float32", "data_format": "channels_last", "keepdims": false}, "name": "block6a_se_squeeze", "inbound_nodes": [[["block6a_activation", 0, 0, {}]]]}, {"class_name": "Reshape", "config": {"name": "block6a_se_reshape", "trainable": false, "dtype": "float32", "target_shape": [1, 1, 720]}, "name": "block6a_se_reshape", "inbound_nodes": [[["block6a_se_squeeze", 0, 0, {}]]]}, {"class_name": "Conv2D", "config": {"name": "block6a_se_reduce", "trainable": false, "dtype": "float32", "filters": 30, "kernel_size": [1, 1], "strides": [1, 1], "padding": "same", "data_format": "channels_last", "dilation_rate": [1, 1], "groups": 1, "activation": "swish", "use_bias": true, "kernel_initializer": {"class_name": "VarianceScaling", "config": {"scale": 2.0, "mode": "fan_out", "distribution": "truncated_normal", "seed": null}}, "bias_initializer": {"class_name": "Zeros", "config": {}}, "kernel_regularizer": null, "bias_regularizer": null, "activity_regularizer": null, "kernel_constraint": null, "bias_constraint": null}, "name": "block6a_se_reduce", "inbound_nodes": [[["block6a_se_reshape", 0, 0, {}]]]}, {"class_name": "Conv2D", "config": {"name": "block6a_se_expand", "trainable": false, "dtype": "float32", "filters": 720, "kernel_size": [1, 1], "strides": [1, 1], "padding": "same", "data_format": "channels_last", "dilation_rate": [1, 1], "groups": 1, "activation": "sigmoid", "use_bias": true, "kernel_initializer": {"class_name": "VarianceScaling", "config": {"scale": 2.0, "mode": "fan_out", "distribution": "truncated_normal", "seed": null}}, "bias_initializer": {"class_name": "Zeros", "config": {}}, "kernel_regularizer": null, "bias_regularizer": null, "activity_regularizer": null, "kernel_constraint": null, "bias_constraint": null}, "name": "block6a_se_expand", "inbound_nodes": [[["block6a_se_reduce", 0, 0, {}]]]}, {"class_name": "Multiply", "config": {"name": "block6a_se_excite", "trainable": false, "dtype": "float32"}, "name": "block6a_se_excite", "inbound_nodes": [[["block6a_activation", 0, 0, {}], ["block6a_se_expand", 0, 0, {}]]]}, {"class_name": "Conv2D", "config": {"name": "block6a_project_conv", "trainable": false, "dtype": "float32", "filters": 208, "kernel_size": [1, 1], "strides": [1, 1], "padding": "same", "data_format": "channels_last", "dilation_rate": [1, 1], "groups": 1, "activation": "linear", "use_bias": false, "kernel_initializer": {"class_name": "VarianceScaling", "config": {"scale": 2.0, "mode": "fan_out", "distribution": "truncated_normal", "seed": null}}, "bias_initializer": {"class_name": "Zeros", "config": {}}, "kernel_regularizer": null, "bias_regularizer": null, "activity_regularizer": null, "kernel_constraint": null, "bias_constraint": null}, "name": "block6a_project_conv", "inbound_nodes": [[["block6a_se_excite", 0, 0, {}]]]}, {"class_name": "BatchNormalization", "config": {"name": "block6a_project_bn", "trainable": false, "dtype": "float32", "axis": [3], "momentum": 0.9, "epsilon": 0.001, "center": true, "scale": true, "beta_initializer": {"class_name": "Zeros", "config": {}}, "gamma_initializer": {"class_name": "Ones", "config": {}}, "moving_mean_initializer": {"class_name": "Zeros", "config": {}}, "moving_variance_initializer": {"class_name": "Ones", "config": {}}, "beta_regularizer": null, "gamma_regularizer": null, "beta_constraint": null, "gamma_constraint": null}, "name": "block6a_project_bn", "inbound_nodes": [[["block6a_project_conv", 0, 0, {}]]]}, {"class_name": "Conv2D", "config": {"name": "block6b_expand_conv", "trainable": false, "dtype": "float32", "filters": 1248, "kernel_size": [1, 1], "strides": [1, 1], "padding": "same", "data_format": "channels_last", "dilation_rate": [1, 1], "groups": 1, "activation": "linear", "use_bias": false, "kernel_initializer": {"class_name": "VarianceScaling", "config": {"scale": 2.0, "mode": "fan_out", "distribution": "truncated_normal", "seed": null}}, "bias_initializer": {"class_name": "Zeros", "config": {}}, "kernel_regularizer": null, "bias_regularizer": null, "activity_regularizer": null, "kernel_constraint": null, "bias_constraint": null}, "name": "block6b_expand_conv", "inbound_nodes": [[["block6a_project_bn", 0, 0, {}]]]}, {"class_name": "BatchNormalization", "config": {"name": "block6b_expand_bn", "trainable": false, "dtype": "float32", "axis": [3], "momentum": 0.9, "epsilon": 0.001, "center": true, "scale": true, "beta_initializer": {"class_name": "Zeros", "config": {}}, "gamma_initializer": {"class_name": "Ones", "config": {}}, "moving_mean_initializer": {"class_name": "Zeros", "config": {}}, "moving_variance_initializer": {"class_name": "Ones", "config": {}}, "beta_regularizer": null, "gamma_regularizer": null, "beta_constraint": null, "gamma_constraint": null}, "name": "block6b_expand_bn", "inbound_nodes": [[["block6b_expand_conv", 0, 0, {}]]]}, {"class_name": "Activation", "config": {"name": "block6b_expand_activation", "trainable": false, "dtype": "float32", "activation": "swish"}, "name": "block6b_expand_activation", "inbound_nodes": [[["block6b_expand_bn", 0, 0, {}]]]}, {"class_name": "DepthwiseConv2D", "config": {"name": "block6b_dwconv2", "trainable": false, "dtype": "float32", "kernel_size": [3, 3], "strides": [1, 1], "padding": "same", "data_format": "channels_last", "dilation_rate": [1, 1], "groups": 1, "activation": "linear", "use_bias": false, "bias_initializer": {"class_name": "Zeros", "config": {}}, "bias_regularizer": null, "activity_regularizer": null, "bias_constraint": null, "depth_multiplier": 1, "depthwise_initializer": {"class_name": "VarianceScaling", "config": {"scale": 2.0, "mode": "fan_out", "distribution": "truncated_normal", "seed": null}}, "depthwise_regularizer": null, "depthwise_constraint": null}, "name": "block6b_dwconv2", "inbound_nodes": [[["block6b_expand_activation", 0, 0, {}]]]}, {"class_name": "BatchNormalization", "config": {"name": "block6b_bn", "trainable": false, "dtype": "float32", "axis": [3], "momentum": 0.9, "epsilon": 0.001, "center": true, "scale": true, "beta_initializer": {"class_name": "Zeros", "config": {}}, "gamma_initializer": {"class_name": "Ones", "config": {}}, "moving_mean_initializer": {"class_name": "Zeros", "config": {}}, "moving_variance_initializer": {"class_name": "Ones", "config": {}}, "beta_regularizer": null, "gamma_regularizer": null, "beta_constraint": null, "gamma_constraint": null}, "name": "block6b_bn", "inbound_nodes": [[["block6b_dwconv2", 0, 0, {}]]]}, {"class_name": "Activation", "config": {"name": "block6b_activation", "trainable": false, "dtype": "float32", "activation": "swish"}, "name": "block6b_activation", "inbound_nodes": [[["block6b_bn", 0, 0, {}]]]}, {"class_name": "GlobalAveragePooling2D", "config": {"name": "block6b_se_squeeze", "trainable": false, "dtype": "float32", "data_format": "channels_last", "keepdims": false}, "name": "block6b_se_squeeze", "inbound_nodes": [[["block6b_activation", 0, 0, {}]]]}, {"class_name": "Reshape", "config": {"name": "block6b_se_reshape", "trainable": false, "dtype": "float32", "target_shape": [1, 1, 1248]}, "name": "block6b_se_reshape", "inbound_nodes": [[["block6b_se_squeeze", 0, 0, {}]]]}, {"class_name": "Conv2D", "config": {"name": "block6b_se_reduce", "trainable": false, "dtype": "float32", "filters": 52, "kernel_size": [1, 1], "strides": [1, 1], "padding": "same", "data_format": "channels_last", "dilation_rate": [1, 1], "groups": 1, "activation": "swish", "use_bias": true, "kernel_initializer": {"class_name": "VarianceScaling", "config": {"scale": 2.0, "mode": "fan_out", "distribution": "truncated_normal", "seed": null}}, "bias_initializer": {"class_name": "Zeros", "config": {}}, "kernel_regularizer": null, "bias_regularizer": null, "activity_regularizer": null, "kernel_constraint": null, "bias_constraint": null}, "name": "block6b_se_reduce", "inbound_nodes": [[["block6b_se_reshape", 0, 0, {}]]]}, {"class_name": "Conv2D", "config": {"name": "block6b_se_expand", "trainable": false, "dtype": "float32", "filters": 1248, "kernel_size": [1, 1], "strides": [1, 1], "padding": "same", "data_format": "channels_last", "dilation_rate": [1, 1], "groups": 1, "activation": "sigmoid", "use_bias": true, "kernel_initializer": {"class_name": "VarianceScaling", "config": {"scale": 2.0, "mode": "fan_out", "distribution": "truncated_normal", "seed": null}}, "bias_initializer": {"class_name": "Zeros", "config": {}}, "kernel_regularizer": null, "bias_regularizer": null, "activity_regularizer": null, "kernel_constraint": null, "bias_constraint": null}, "name": "block6b_se_expand", "inbound_nodes": [[["block6b_se_reduce", 0, 0, {}]]]}, {"class_name": "Multiply", "config": {"name": "block6b_se_excite", "trainable": false, "dtype": "float32"}, "name": "block6b_se_excite", "inbound_nodes": [[["block6b_activation", 0, 0, {}], ["block6b_se_expand", 0, 0, {}]]]}, {"class_name": "Conv2D", "config": {"name": "block6b_project_conv", "trainable": false, "dtype": "float32", "filters": 208, "kernel_size": [1, 1], "strides": [1, 1], "padding": "same", "data_format": "channels_last", "dilation_rate": [1, 1], "groups": 1, "activation": "linear", "use_bias": false, "kernel_initializer": {"class_name": "VarianceScaling", "config": {"scale": 2.0, "mode": "fan_out", "distribution": "truncated_normal", "seed": null}}, "bias_initializer": {"class_name": "Zeros", "config": {}}, "kernel_regularizer": null, "bias_regularizer": null, "activity_regularizer": null, "kernel_constraint": null, "bias_constraint": null}, "name": "block6b_project_conv", "inbound_nodes": [[["block6b_se_excite", 0, 0, {}]]]}, {"class_name": "BatchNormalization", "config": {"name": "block6b_project_bn", "trainable": false, "dtype": "float32", "axis": [3], "momentum": 0.9, "epsilon": 0.001, "center": true, "scale": true, "beta_initializer": {"class_name": "Zeros", "config": {}}, "gamma_initializer": {"class_name": "Ones", "config": {}}, "moving_mean_initializer": {"class_name": "Zeros", "config": {}}, "moving_variance_initializer": {"class_name": "Ones", "config": {}}, "beta_regularizer": null, "gamma_regularizer": null, "beta_constraint": null, "gamma_constraint": null}, "name": "block6b_project_bn", "inbound_nodes": [[["block6b_project_conv", 0, 0, {}]]]}, {"class_name": "Add", "config": {"name": "block6b_add", "trainable": false, "dtype": "float32"}, "name": "block6b_add", "inbound_nodes": [[["block6b_project_bn", 0, 0, {}], ["block6a_project_bn", 0, 0, {}]]]}, {"class_name": "Conv2D", "config": {"name": "block6c_expand_conv", "trainable": false, "dtype": "float32", "filters": 1248, "kernel_size": [1, 1], "strides": [1, 1], "padding": "same", "data_format": "channels_last", "dilation_rate": [1, 1], "groups": 1, "activation": "linear", "use_bias": false, "kernel_initializer": {"class_name": "VarianceScaling", "config": {"scale": 2.0, "mode": "fan_out", "distribution": "truncated_normal", "seed": null}}, "bias_initializer": {"class_name": "Zeros", "config": {}}, "kernel_regularizer": null, "bias_regularizer": null, "activity_regularizer": null, "kernel_constraint": null, "bias_constraint": null}, "name": "block6c_expand_conv", "inbound_nodes": [[["block6b_add", 0, 0, {}]]]}, {"class_name": "BatchNormalization", "config": {"name": "block6c_expand_bn", "trainable": false, "dtype": "float32", "axis": [3], "momentum": 0.9, "epsilon": 0.001, "center": true, "scale": true, "beta_initializer": {"class_name": "Zeros", "config": {}}, "gamma_initializer": {"class_name": "Ones", "config": {}}, "moving_mean_initializer": {"class_name": "Zeros", "config": {}}, "moving_variance_initializer": {"class_name": "Ones", "config": {}}, "beta_regularizer": null, "gamma_regularizer": null, "beta_constraint": null, "gamma_constraint": null}, "name": "block6c_expand_bn", "inbound_nodes": [[["block6c_expand_conv", 0, 0, {}]]]}, {"class_name": "Activation", "config": {"name": "block6c_expand_activation", "trainable": false, "dtype": "float32", "activation": "swish"}, "name": "block6c_expand_activation", "inbound_nodes": [[["block6c_expand_bn", 0, 0, {}]]]}, {"class_name": "DepthwiseConv2D", "config": {"name": "block6c_dwconv2", "trainable": false, "dtype": "float32", "kernel_size": [3, 3], "strides": [1, 1], "padding": "same", "data_format": "channels_last", "dilation_rate": [1, 1], "groups": 1, "activation": "linear", "use_bias": false, "bias_initializer": {"class_name": "Zeros", "config": {}}, "bias_regularizer": null, "activity_regularizer": null, "bias_constraint": null, "depth_multiplier": 1, "depthwise_initializer": {"class_name": "VarianceScaling", "config": {"scale": 2.0, "mode": "fan_out", "distribution": "truncated_normal", "seed": null}}, "depthwise_regularizer": null, "depthwise_constraint": null}, "name": "block6c_dwconv2", "inbound_nodes": [[["block6c_expand_activation", 0, 0, {}]]]}, {"class_name": "BatchNormalization", "config": {"name": "block6c_bn", "trainable": false, "dtype": "float32", "axis": [3], "momentum": 0.9, "epsilon": 0.001, "center": true, "scale": true, "beta_initializer": {"class_name": "Zeros", "config": {}}, "gamma_initializer": {"class_name": "Ones", "config": {}}, "moving_mean_initializer": {"class_name": "Zeros", "config": {}}, "moving_variance_initializer": {"class_name": "Ones", "config": {}}, "beta_regularizer": null, "gamma_regularizer": null, "beta_constraint": null, "gamma_constraint": null}, "name": "block6c_bn", "inbound_nodes": [[["block6c_dwconv2", 0, 0, {}]]]}, {"class_name": "Activation", "config": {"name": "block6c_activation", "trainable": false, "dtype": "float32", "activation": "swish"}, "name": "block6c_activation", "inbound_nodes": [[["block6c_bn", 0, 0, {}]]]}, {"class_name": "GlobalAveragePooling2D", "config": {"name": "block6c_se_squeeze", "trainable": false, "dtype": "float32", "data_format": "channels_last", "keepdims": false}, "name": "block6c_se_squeeze", "inbound_nodes": [[["block6c_activation", 0, 0, {}]]]}, {"class_name": "Reshape", "config": {"name": "block6c_se_reshape", "trainable": false, "dtype": "float32", "target_shape": [1, 1, 1248]}, "name": "block6c_se_reshape", "inbound_nodes": [[["block6c_se_squeeze", 0, 0, {}]]]}, {"class_name": "Conv2D", "config": {"name": "block6c_se_reduce", "trainable": false, "dtype": "float32", "filters": 52, "kernel_size": [1, 1], "strides": [1, 1], "padding": "same", "data_format": "channels_last", "dilation_rate": [1, 1], "groups": 1, "activation": "swish", "use_bias": true, "kernel_initializer": {"class_name": "VarianceScaling", "config": {"scale": 2.0, "mode": "fan_out", "distribution": "truncated_normal", "seed": null}}, "bias_initializer": {"class_name": "Zeros", "config": {}}, "kernel_regularizer": null, "bias_regularizer": null, "activity_regularizer": null, "kernel_constraint": null, "bias_constraint": null}, "name": "block6c_se_reduce", "inbound_nodes": [[["block6c_se_reshape", 0, 0, {}]]]}, {"class_name": "Conv2D", "config": {"name": "block6c_se_expand", "trainable": false, "dtype": "float32", "filters": 1248, "kernel_size": [1, 1], "strides": [1, 1], "padding": "same", "data_format": "channels_last", "dilation_rate": [1, 1], "groups": 1, "activation": "sigmoid", "use_bias": true, "kernel_initializer": {"class_name": "VarianceScaling", "config": {"scale": 2.0, "mode": "fan_out", "distribution": "truncated_normal", "seed": null}}, "bias_initializer": {"class_name": "Zeros", "config": {}}, "kernel_regularizer": null, "bias_regularizer": null, "activity_regularizer": null, "kernel_constraint": null, "bias_constraint": null}, "name": "block6c_se_expand", "inbound_nodes": [[["block6c_se_reduce", 0, 0, {}]]]}, {"class_name": "Multiply", "config": {"name": "block6c_se_excite", "trainable": false, "dtype": "float32"}, "name": "block6c_se_excite", "inbound_nodes": [[["block6c_activation", 0, 0, {}], ["block6c_se_expand", 0, 0, {}]]]}, {"class_name": "Conv2D", "config": {"name": "block6c_project_conv", "trainable": false, "dtype": "float32", "filters": 208, "kernel_size": [1, 1], "strides": [1, 1], "padding": "same", "data_format": "channels_last", "dilation_rate": [1, 1], "groups": 1, "activation": "linear", "use_bias": false, "kernel_initializer": {"class_name": "VarianceScaling", "config": {"scale": 2.0, "mode": "fan_out", "distribution": "truncated_normal", "seed": null}}, "bias_initializer": {"class_name": "Zeros", "config": {}}, "kernel_regularizer": null, "bias_regularizer": null, "activity_regularizer": null, "kernel_constraint": null, "bias_constraint": null}, "name": "block6c_project_conv", "inbound_nodes": [[["block6c_se_excite", 0, 0, {}]]]}, {"class_name": "BatchNormalization", "config": {"name": "block6c_project_bn", "trainable": false, "dtype": "float32", "axis": [3], "momentum": 0.9, "epsilon": 0.001, "center": true, "scale": true, "beta_initializer": {"class_name": "Zeros", "config": {}}, "gamma_initializer": {"class_name": "Ones", "config": {}}, "moving_mean_initializer": {"class_name": "Zeros", "config": {}}, "moving_variance_initializer": {"class_name": "Ones", "config": {}}, "beta_regularizer": null, "gamma_regularizer": null, "beta_constraint": null, "gamma_constraint": null}, "name": "block6c_project_bn", "inbound_nodes": [[["block6c_project_conv", 0, 0, {}]]]}, {"class_name": "Add", "config": {"name": "block6c_add", "trainable": false, "dtype": "float32"}, "name": "block6c_add", "inbound_nodes": [[["block6c_project_bn", 0, 0, {}], ["block6b_add", 0, 0, {}]]]}, {"class_name": "Conv2D", "config": {"name": "block6d_expand_conv", "trainable": false, "dtype": "float32", "filters": 1248, "kernel_size": [1, 1], "strides": [1, 1], "padding": "same", "data_format": "channels_last", "dilation_rate": [1, 1], "groups": 1, "activation": "linear", "use_bias": false, "kernel_initializer": {"class_name": "VarianceScaling", "config": {"scale": 2.0, "mode": "fan_out", "distribution": "truncated_normal", "seed": null}}, "bias_initializer": {"class_name": "Zeros", "config": {}}, "kernel_regularizer": null, "bias_regularizer": null, "activity_regularizer": null, "kernel_constraint": null, "bias_constraint": null}, "name": "block6d_expand_conv", "inbound_nodes": [[["block6c_add", 0, 0, {}]]]}, {"class_name": "BatchNormalization", "config": {"name": "block6d_expand_bn", "trainable": false, "dtype": "float32", "axis": [3], "momentum": 0.9, "epsilon": 0.001, "center": true, "scale": true, "beta_initializer": {"class_name": "Zeros", "config": {}}, "gamma_initializer": {"class_name": "Ones", "config": {}}, "moving_mean_initializer": {"class_name": "Zeros", "config": {}}, "moving_variance_initializer": {"class_name": "Ones", "config": {}}, "beta_regularizer": null, "gamma_regularizer": null, "beta_constraint": null, "gamma_constraint": null}, "name": "block6d_expand_bn", "inbound_nodes": [[["block6d_expand_conv", 0, 0, {}]]]}, {"class_name": "Activation", "config": {"name": "block6d_expand_activation", "trainable": false, "dtype": "float32", "activation": "swish"}, "name": "block6d_expand_activation", "inbound_nodes": [[["block6d_expand_bn", 0, 0, {}]]]}, {"class_name": "DepthwiseConv2D", "config": {"name": "block6d_dwconv2", "trainable": false, "dtype": "float32", "kernel_size": [3, 3], "strides": [1, 1], "padding": "same", "data_format": "channels_last", "dilation_rate": [1, 1], "groups": 1, "activation": "linear", "use_bias": false, "bias_initializer": {"class_name": "Zeros", "config": {}}, "bias_regularizer": null, "activity_regularizer": null, "bias_constraint": null, "depth_multiplier": 1, "depthwise_initializer": {"class_name": "VarianceScaling", "config": {"scale": 2.0, "mode": "fan_out", "distribution": "truncated_normal", "seed": null}}, "depthwise_regularizer": null, "depthwise_constraint": null}, "name": "block6d_dwconv2", "inbound_nodes": [[["block6d_expand_activation", 0, 0, {}]]]}, {"class_name": "BatchNormalization", "config": {"name": "block6d_bn", "trainable": false, "dtype": "float32", "axis": [3], "momentum": 0.9, "epsilon": 0.001, "center": true, "scale": true, "beta_initializer": {"class_name": "Zeros", "config": {}}, "gamma_initializer": {"class_name": "Ones", "config": {}}, "moving_mean_initializer": {"class_name": "Zeros", "config": {}}, "moving_variance_initializer": {"class_name": "Ones", "config": {}}, "beta_regularizer": null, "gamma_regularizer": null, "beta_constraint": null, "gamma_constraint": null}, "name": "block6d_bn", "inbound_nodes": [[["block6d_dwconv2", 0, 0, {}]]]}, {"class_name": "Activation", "config": {"name": "block6d_activation", "trainable": false, "dtype": "float32", "activation": "swish"}, "name": "block6d_activation", "inbound_nodes": [[["block6d_bn", 0, 0, {}]]]}, {"class_name": "GlobalAveragePooling2D", "config": {"name": "block6d_se_squeeze", "trainable": false, "dtype": "float32", "data_format": "channels_last", "keepdims": false}, "name": "block6d_se_squeeze", "inbound_nodes": [[["block6d_activation", 0, 0, {}]]]}, {"class_name": "Reshape", "config": {"name": "block6d_se_reshape", "trainable": false, "dtype": "float32", "target_shape": [1, 1, 1248]}, "name": "block6d_se_reshape", "inbound_nodes": [[["block6d_se_squeeze", 0, 0, {}]]]}, {"class_name": "Conv2D", "config": {"name": "block6d_se_reduce", "trainable": false, "dtype": "float32", "filters": 52, "kernel_size": [1, 1], "strides": [1, 1], "padding": "same", "data_format": "channels_last", "dilation_rate": [1, 1], "groups": 1, "activation": "swish", "use_bias": true, "kernel_initializer": {"class_name": "VarianceScaling", "config": {"scale": 2.0, "mode": "fan_out", "distribution": "truncated_normal", "seed": null}}, "bias_initializer": {"class_name": "Zeros", "config": {}}, "kernel_regularizer": null, "bias_regularizer": null, "activity_regularizer": null, "kernel_constraint": null, "bias_constraint": null}, "name": "block6d_se_reduce", "inbound_nodes": [[["block6d_se_reshape", 0, 0, {}]]]}, {"class_name": "Conv2D", "config": {"name": "block6d_se_expand", "trainable": false, "dtype": "float32", "filters": 1248, "kernel_size": [1, 1], "strides": [1, 1], "padding": "same", "data_format": "channels_last", "dilation_rate": [1, 1], "groups": 1, "activation": "sigmoid", "use_bias": true, "kernel_initializer": {"class_name": "VarianceScaling", "config": {"scale": 2.0, "mode": "fan_out", "distribution": "truncated_normal", "seed": null}}, "bias_initializer": {"class_name": "Zeros", "config": {}}, "kernel_regularizer": null, "bias_regularizer": null, "activity_regularizer": null, "kernel_constraint": null, "bias_constraint": null}, "name": "block6d_se_expand", "inbound_nodes": [[["block6d_se_reduce", 0, 0, {}]]]}, {"class_name": "Multiply", "config": {"name": "block6d_se_excite", "trainable": false, "dtype": "float32"}, "name": "block6d_se_excite", "inbound_nodes": [[["block6d_activation", 0, 0, {}], ["block6d_se_expand", 0, 0, {}]]]}, {"class_name": "Conv2D", "config": {"name": "block6d_project_conv", "trainable": false, "dtype": "float32", "filters": 208, "kernel_size": [1, 1], "strides": [1, 1], "padding": "same", "data_format": "channels_last", "dilation_rate": [1, 1], "groups": 1, "activation": "linear", "use_bias": false, "kernel_initializer": {"class_name": "VarianceScaling", "config": {"scale": 2.0, "mode": "fan_out", "distribution": "truncated_normal", "seed": null}}, "bias_initializer": {"class_name": "Zeros", "config": {}}, "kernel_regularizer": null, "bias_regularizer": null, "activity_regularizer": null, "kernel_constraint": null, "bias_constraint": null}, "name": "block6d_project_conv", "inbound_nodes": [[["block6d_se_excite", 0, 0, {}]]]}, {"class_name": "BatchNormalization", "config": {"name": "block6d_project_bn", "trainable": false, "dtype": "float32", "axis": [3], "momentum": 0.9, "epsilon": 0.001, "center": true, "scale": true, "beta_initializer": {"class_name": "Zeros", "config": {}}, "gamma_initializer": {"class_name": "Ones", "config": {}}, "moving_mean_initializer": {"class_name": "Zeros", "config": {}}, "moving_variance_initializer": {"class_name": "Ones", "config": {}}, "beta_regularizer": null, "gamma_regularizer": null, "beta_constraint": null, "gamma_constraint": null}, "name": "block6d_project_bn", "inbound_nodes": [[["block6d_project_conv", 0, 0, {}]]]}, {"class_name": "Add", "config": {"name": "block6d_add", "trainable": false, "dtype": "float32"}, "name": "block6d_add", "inbound_nodes": [[["block6d_project_bn", 0, 0, {}], ["block6c_add", 0, 0, {}]]]}, {"class_name": "Conv2D", "config": {"name": "block6e_expand_conv", "trainable": false, "dtype": "float32", "filters": 1248, "kernel_size": [1, 1], "strides": [1, 1], "padding": "same", "data_format": "channels_last", "dilation_rate": [1, 1], "groups": 1, "activation": "linear", "use_bias": false, "kernel_initializer": {"class_name": "VarianceScaling", "config": {"scale": 2.0, "mode": "fan_out", "distribution": "truncated_normal", "seed": null}}, "bias_initializer": {"class_name": "Zeros", "config": {}}, "kernel_regularizer": null, "bias_regularizer": null, "activity_regularizer": null, "kernel_constraint": null, "bias_constraint": null}, "name": "block6e_expand_conv", "inbound_nodes": [[["block6d_add", 0, 0, {}]]]}, {"class_name": "BatchNormalization", "config": {"name": "block6e_expand_bn", "trainable": false, "dtype": "float32", "axis": [3], "momentum": 0.9, "epsilon": 0.001, "center": true, "scale": true, "beta_initializer": {"class_name": "Zeros", "config": {}}, "gamma_initializer": {"class_name": "Ones", "config": {}}, "moving_mean_initializer": {"class_name": "Zeros", "config": {}}, "moving_variance_initializer": {"class_name": "Ones", "config": {}}, "beta_regularizer": null, "gamma_regularizer": null, "beta_constraint": null, "gamma_constraint": null}, "name": "block6e_expand_bn", "inbound_nodes": [[["block6e_expand_conv", 0, 0, {}]]]}, {"class_name": "Activation", "config": {"name": "block6e_expand_activation", "trainable": false, "dtype": "float32", "activation": "swish"}, "name": "block6e_expand_activation", "inbound_nodes": [[["block6e_expand_bn", 0, 0, {}]]]}, {"class_name": "DepthwiseConv2D", "config": {"name": "block6e_dwconv2", "trainable": false, "dtype": "float32", "kernel_size": [3, 3], "strides": [1, 1], "padding": "same", "data_format": "channels_last", "dilation_rate": [1, 1], "groups": 1, "activation": "linear", "use_bias": false, "bias_initializer": {"class_name": "Zeros", "config": {}}, "bias_regularizer": null, "activity_regularizer": null, "bias_constraint": null, "depth_multiplier": 1, "depthwise_initializer": {"class_name": "VarianceScaling", "config": {"scale": 2.0, "mode": "fan_out", "distribution": "truncated_normal", "seed": null}}, "depthwise_regularizer": null, "depthwise_constraint": null}, "name": "block6e_dwconv2", "inbound_nodes": [[["block6e_expand_activation", 0, 0, {}]]]}, {"class_name": "BatchNormalization", "config": {"name": "block6e_bn", "trainable": false, "dtype": "float32", "axis": [3], "momentum": 0.9, "epsilon": 0.001, "center": true, "scale": true, "beta_initializer": {"class_name": "Zeros", "config": {}}, "gamma_initializer": {"class_name": "Ones", "config": {}}, "moving_mean_initializer": {"class_name": "Zeros", "config": {}}, "moving_variance_initializer": {"class_name": "Ones", "config": {}}, "beta_regularizer": null, "gamma_regularizer": null, "beta_constraint": null, "gamma_constraint": null}, "name": "block6e_bn", "inbound_nodes": [[["block6e_dwconv2", 0, 0, {}]]]}, {"class_name": "Activation", "config": {"name": "block6e_activation", "trainable": false, "dtype": "float32", "activation": "swish"}, "name": "block6e_activation", "inbound_nodes": [[["block6e_bn", 0, 0, {}]]]}, {"class_name": "GlobalAveragePooling2D", "config": {"name": "block6e_se_squeeze", "trainable": false, "dtype": "float32", "data_format": "channels_last", "keepdims": false}, "name": "block6e_se_squeeze", "inbound_nodes": [[["block6e_activation", 0, 0, {}]]]}, {"class_name": "Reshape", "config": {"name": "block6e_se_reshape", "trainable": false, "dtype": "float32", "target_shape": [1, 1, 1248]}, "name": "block6e_se_reshape", "inbound_nodes": [[["block6e_se_squeeze", 0, 0, {}]]]}, {"class_name": "Conv2D", "config": {"name": "block6e_se_reduce", "trainable": false, "dtype": "float32", "filters": 52, "kernel_size": [1, 1], "strides": [1, 1], "padding": "same", "data_format": "channels_last", "dilation_rate": [1, 1], "groups": 1, "activation": "swish", "use_bias": true, "kernel_initializer": {"class_name": "VarianceScaling", "config": {"scale": 2.0, "mode": "fan_out", "distribution": "truncated_normal", "seed": null}}, "bias_initializer": {"class_name": "Zeros", "config": {}}, "kernel_regularizer": null, "bias_regularizer": null, "activity_regularizer": null, "kernel_constraint": null, "bias_constraint": null}, "name": "block6e_se_reduce", "inbound_nodes": [[["block6e_se_reshape", 0, 0, {}]]]}, {"class_name": "Conv2D", "config": {"name": "block6e_se_expand", "trainable": false, "dtype": "float32", "filters": 1248, "kernel_size": [1, 1], "strides": [1, 1], "padding": "same", "data_format": "channels_last", "dilation_rate": [1, 1], "groups": 1, "activation": "sigmoid", "use_bias": true, "kernel_initializer": {"class_name": "VarianceScaling", "config": {"scale": 2.0, "mode": "fan_out", "distribution": "truncated_normal", "seed": null}}, "bias_initializer": {"class_name": "Zeros", "config": {}}, "kernel_regularizer": null, "bias_regularizer": null, "activity_regularizer": null, "kernel_constraint": null, "bias_constraint": null}, "name": "block6e_se_expand", "inbound_nodes": [[["block6e_se_reduce", 0, 0, {}]]]}, {"class_name": "Multiply", "config": {"name": "block6e_se_excite", "trainable": false, "dtype": "float32"}, "name": "block6e_se_excite", "inbound_nodes": [[["block6e_activation", 0, 0, {}], ["block6e_se_expand", 0, 0, {}]]]}, {"class_name": "Conv2D", "config": {"name": "block6e_project_conv", "trainable": false, "dtype": "float32", "filters": 208, "kernel_size": [1, 1], "strides": [1, 1], "padding": "same", "data_format": "channels_last", "dilation_rate": [1, 1], "groups": 1, "activation": "linear", "use_bias": false, "kernel_initializer": {"class_name": "VarianceScaling", "config": {"scale": 2.0, "mode": "fan_out", "distribution": "truncated_normal", "seed": null}}, "bias_initializer": {"class_name": "Zeros", "config": {}}, "kernel_regularizer": null, "bias_regularizer": null, "activity_regularizer": null, "kernel_constraint": null, "bias_constraint": null}, "name": "block6e_project_conv", "inbound_nodes": [[["block6e_se_excite", 0, 0, {}]]]}, {"class_name": "BatchNormalization", "config": {"name": "block6e_project_bn", "trainable": false, "dtype": "float32", "axis": [3], "momentum": 0.9, "epsilon": 0.001, "center": true, "scale": true, "beta_initializer": {"class_name": "Zeros", "config": {}}, "gamma_initializer": {"class_name": "Ones", "config": {}}, "moving_mean_initializer": {"class_name": "Zeros", "config": {}}, "moving_variance_initializer": {"class_name": "Ones", "config": {}}, "beta_regularizer": null, "gamma_regularizer": null, "beta_constraint": null, "gamma_constraint": null}, "name": "block6e_project_bn", "inbound_nodes": [[["block6e_project_conv", 0, 0, {}]]]}, {"class_name": "Add", "config": {"name": "block6e_add", "trainable": false, "dtype": "float32"}, "name": "block6e_add", "inbound_nodes": [[["block6e_project_bn", 0, 0, {}], ["block6d_add", 0, 0, {}]]]}, {"class_name": "Conv2D", "config": {"name": "block6f_expand_conv", "trainable": false, "dtype": "float32", "filters": 1248, "kernel_size": [1, 1], "strides": [1, 1], "padding": "same", "data_format": "channels_last", "dilation_rate": [1, 1], "groups": 1, "activation": "linear", "use_bias": false, "kernel_initializer": {"class_name": "VarianceScaling", "config": {"scale": 2.0, "mode": "fan_out", "distribution": "truncated_normal", "seed": null}}, "bias_initializer": {"class_name": "Zeros", "config": {}}, "kernel_regularizer": null, "bias_regularizer": null, "activity_regularizer": null, "kernel_constraint": null, "bias_constraint": null}, "name": "block6f_expand_conv", "inbound_nodes": [[["block6e_add", 0, 0, {}]]]}, {"class_name": "BatchNormalization", "config": {"name": "block6f_expand_bn", "trainable": false, "dtype": "float32", "axis": [3], "momentum": 0.9, "epsilon": 0.001, "center": true, "scale": true, "beta_initializer": {"class_name": "Zeros", "config": {}}, "gamma_initializer": {"class_name": "Ones", "config": {}}, "moving_mean_initializer": {"class_name": "Zeros", "config": {}}, "moving_variance_initializer": {"class_name": "Ones", "config": {}}, "beta_regularizer": null, "gamma_regularizer": null, "beta_constraint": null, "gamma_constraint": null}, "name": "block6f_expand_bn", "inbound_nodes": [[["block6f_expand_conv", 0, 0, {}]]]}, {"class_name": "Activation", "config": {"name": "block6f_expand_activation", "trainable": false, "dtype": "float32", "activation": "swish"}, "name": "block6f_expand_activation", "inbound_nodes": [[["block6f_expand_bn", 0, 0, {}]]]}, {"class_name": "DepthwiseConv2D", "config": {"name": "block6f_dwconv2", "trainable": false, "dtype": "float32", "kernel_size": [3, 3], "strides": [1, 1], "padding": "same", "data_format": "channels_last", "dilation_rate": [1, 1], "groups": 1, "activation": "linear", "use_bias": false, "bias_initializer": {"class_name": "Zeros", "config": {}}, "bias_regularizer": null, "activity_regularizer": null, "bias_constraint": null, "depth_multiplier": 1, "depthwise_initializer": {"class_name": "VarianceScaling", "config": {"scale": 2.0, "mode": "fan_out", "distribution": "truncated_normal", "seed": null}}, "depthwise_regularizer": null, "depthwise_constraint": null}, "name": "block6f_dwconv2", "inbound_nodes": [[["block6f_expand_activation", 0, 0, {}]]]}, {"class_name": "BatchNormalization", "config": {"name": "block6f_bn", "trainable": false, "dtype": "float32", "axis": [3], "momentum": 0.9, "epsilon": 0.001, "center": true, "scale": true, "beta_initializer": {"class_name": "Zeros", "config": {}}, "gamma_initializer": {"class_name": "Ones", "config": {}}, "moving_mean_initializer": {"class_name": "Zeros", "config": {}}, "moving_variance_initializer": {"class_name": "Ones", "config": {}}, "beta_regularizer": null, "gamma_regularizer": null, "beta_constraint": null, "gamma_constraint": null}, "name": "block6f_bn", "inbound_nodes": [[["block6f_dwconv2", 0, 0, {}]]]}, {"class_name": "Activation", "config": {"name": "block6f_activation", "trainable": false, "dtype": "float32", "activation": "swish"}, "name": "block6f_activation", "inbound_nodes": [[["block6f_bn", 0, 0, {}]]]}, {"class_name": "GlobalAveragePooling2D", "config": {"name": "block6f_se_squeeze", "trainable": false, "dtype": "float32", "data_format": "channels_last", "keepdims": false}, "name": "block6f_se_squeeze", "inbound_nodes": [[["block6f_activation", 0, 0, {}]]]}, {"class_name": "Reshape", "config": {"name": "block6f_se_reshape", "trainable": false, "dtype": "float32", "target_shape": [1, 1, 1248]}, "name": "block6f_se_reshape", "inbound_nodes": [[["block6f_se_squeeze", 0, 0, {}]]]}, {"class_name": "Conv2D", "config": {"name": "block6f_se_reduce", "trainable": false, "dtype": "float32", "filters": 52, "kernel_size": [1, 1], "strides": [1, 1], "padding": "same", "data_format": "channels_last", "dilation_rate": [1, 1], "groups": 1, "activation": "swish", "use_bias": true, "kernel_initializer": {"class_name": "VarianceScaling", "config": {"scale": 2.0, "mode": "fan_out", "distribution": "truncated_normal", "seed": null}}, "bias_initializer": {"class_name": "Zeros", "config": {}}, "kernel_regularizer": null, "bias_regularizer": null, "activity_regularizer": null, "kernel_constraint": null, "bias_constraint": null}, "name": "block6f_se_reduce", "inbound_nodes": [[["block6f_se_reshape", 0, 0, {}]]]}, {"class_name": "Conv2D", "config": {"name": "block6f_se_expand", "trainable": false, "dtype": "float32", "filters": 1248, "kernel_size": [1, 1], "strides": [1, 1], "padding": "same", "data_format": "channels_last", "dilation_rate": [1, 1], "groups": 1, "activation": "sigmoid", "use_bias": true, "kernel_initializer": {"class_name": "VarianceScaling", "config": {"scale": 2.0, "mode": "fan_out", "distribution": "truncated_normal", "seed": null}}, "bias_initializer": {"class_name": "Zeros", "config": {}}, "kernel_regularizer": null, "bias_regularizer": null, "activity_regularizer": null, "kernel_constraint": null, "bias_constraint": null}, "name": "block6f_se_expand", "inbound_nodes": [[["block6f_se_reduce", 0, 0, {}]]]}, {"class_name": "Multiply", "config": {"name": "block6f_se_excite", "trainable": false, "dtype": "float32"}, "name": "block6f_se_excite", "inbound_nodes": [[["block6f_activation", 0, 0, {}], ["block6f_se_expand", 0, 0, {}]]]}, {"class_name": "Conv2D", "config": {"name": "block6f_project_conv", "trainable": false, "dtype": "float32", "filters": 208, "kernel_size": [1, 1], "strides": [1, 1], "padding": "same", "data_format": "channels_last", "dilation_rate": [1, 1], "groups": 1, "activation": "linear", "use_bias": false, "kernel_initializer": {"class_name": "VarianceScaling", "config": {"scale": 2.0, "mode": "fan_out", "distribution": "truncated_normal", "seed": null}}, "bias_initializer": {"class_name": "Zeros", "config": {}}, "kernel_regularizer": null, "bias_regularizer": null, "activity_regularizer": null, "kernel_constraint": null, "bias_constraint": null}, "name": "block6f_project_conv", "inbound_nodes": [[["block6f_se_excite", 0, 0, {}]]]}, {"class_name": "BatchNormalization", "config": {"name": "block6f_project_bn", "trainable": false, "dtype": "float32", "axis": [3], "momentum": 0.9, "epsilon": 0.001, "center": true, "scale": true, "beta_initializer": {"class_name": "Zeros", "config": {}}, "gamma_initializer": {"class_name": "Ones", "config": {}}, "moving_mean_initializer": {"class_name": "Zeros", "config": {}}, "moving_variance_initializer": {"class_name": "Ones", "config": {}}, "beta_regularizer": null, "gamma_regularizer": null, "beta_constraint": null, "gamma_constraint": null}, "name": "block6f_project_bn", "inbound_nodes": [[["block6f_project_conv", 0, 0, {}]]]}, {"class_name": "Add", "config": {"name": "block6f_add", "trainable": false, "dtype": "float32"}, "name": "block6f_add", "inbound_nodes": [[["block6f_project_bn", 0, 0, {}], ["block6e_add", 0, 0, {}]]]}, {"class_name": "Conv2D", "config": {"name": "block6g_expand_conv", "trainable": false, "dtype": "float32", "filters": 1248, "kernel_size": [1, 1], "strides": [1, 1], "padding": "same", "data_format": "channels_last", "dilation_rate": [1, 1], "groups": 1, "activation": "linear", "use_bias": false, "kernel_initializer": {"class_name": "VarianceScaling", "config": {"scale": 2.0, "mode": "fan_out", "distribution": "truncated_normal", "seed": null}}, "bias_initializer": {"class_name": "Zeros", "config": {}}, "kernel_regularizer": null, "bias_regularizer": null, "activity_regularizer": null, "kernel_constraint": null, "bias_constraint": null}, "name": "block6g_expand_conv", "inbound_nodes": [[["block6f_add", 0, 0, {}]]]}, {"class_name": "BatchNormalization", "config": {"name": "block6g_expand_bn", "trainable": false, "dtype": "float32", "axis": [3], "momentum": 0.9, "epsilon": 0.001, "center": true, "scale": true, "beta_initializer": {"class_name": "Zeros", "config": {}}, "gamma_initializer": {"class_name": "Ones", "config": {}}, "moving_mean_initializer": {"class_name": "Zeros", "config": {}}, "moving_variance_initializer": {"class_name": "Ones", "config": {}}, "beta_regularizer": null, "gamma_regularizer": null, "beta_constraint": null, "gamma_constraint": null}, "name": "block6g_expand_bn", "inbound_nodes": [[["block6g_expand_conv", 0, 0, {}]]]}, {"class_name": "Activation", "config": {"name": "block6g_expand_activation", "trainable": false, "dtype": "float32", "activation": "swish"}, "name": "block6g_expand_activation", "inbound_nodes": [[["block6g_expand_bn", 0, 0, {}]]]}, {"class_name": "DepthwiseConv2D", "config": {"name": "block6g_dwconv2", "trainable": false, "dtype": "float32", "kernel_size": [3, 3], "strides": [1, 1], "padding": "same", "data_format": "channels_last", "dilation_rate": [1, 1], "groups": 1, "activation": "linear", "use_bias": false, "bias_initializer": {"class_name": "Zeros", "config": {}}, "bias_regularizer": null, "activity_regularizer": null, "bias_constraint": null, "depth_multiplier": 1, "depthwise_initializer": {"class_name": "VarianceScaling", "config": {"scale": 2.0, "mode": "fan_out", "distribution": "truncated_normal", "seed": null}}, "depthwise_regularizer": null, "depthwise_constraint": null}, "name": "block6g_dwconv2", "inbound_nodes": [[["block6g_expand_activation", 0, 0, {}]]]}, {"class_name": "BatchNormalization", "config": {"name": "block6g_bn", "trainable": false, "dtype": "float32", "axis": [3], "momentum": 0.9, "epsilon": 0.001, "center": true, "scale": true, "beta_initializer": {"class_name": "Zeros", "config": {}}, "gamma_initializer": {"class_name": "Ones", "config": {}}, "moving_mean_initializer": {"class_name": "Zeros", "config": {}}, "moving_variance_initializer": {"class_name": "Ones", "config": {}}, "beta_regularizer": null, "gamma_regularizer": null, "beta_constraint": null, "gamma_constraint": null}, "name": "block6g_bn", "inbound_nodes": [[["block6g_dwconv2", 0, 0, {}]]]}, {"class_name": "Activation", "config": {"name": "block6g_activation", "trainable": false, "dtype": "float32", "activation": "swish"}, "name": "block6g_activation", "inbound_nodes": [[["block6g_bn", 0, 0, {}]]]}, {"class_name": "GlobalAveragePooling2D", "config": {"name": "block6g_se_squeeze", "trainable": false, "dtype": "float32", "data_format": "channels_last", "keepdims": false}, "name": "block6g_se_squeeze", "inbound_nodes": [[["block6g_activation", 0, 0, {}]]]}, {"class_name": "Reshape", "config": {"name": "block6g_se_reshape", "trainable": false, "dtype": "float32", "target_shape": [1, 1, 1248]}, "name": "block6g_se_reshape", "inbound_nodes": [[["block6g_se_squeeze", 0, 0, {}]]]}, {"class_name": "Conv2D", "config": {"name": "block6g_se_reduce", "trainable": false, "dtype": "float32", "filters": 52, "kernel_size": [1, 1], "strides": [1, 1], "padding": "same", "data_format": "channels_last", "dilation_rate": [1, 1], "groups": 1, "activation": "swish", "use_bias": true, "kernel_initializer": {"class_name": "VarianceScaling", "config": {"scale": 2.0, "mode": "fan_out", "distribution": "truncated_normal", "seed": null}}, "bias_initializer": {"class_name": "Zeros", "config": {}}, "kernel_regularizer": null, "bias_regularizer": null, "activity_regularizer": null, "kernel_constraint": null, "bias_constraint": null}, "name": "block6g_se_reduce", "inbound_nodes": [[["block6g_se_reshape", 0, 0, {}]]]}, {"class_name": "Conv2D", "config": {"name": "block6g_se_expand", "trainable": false, "dtype": "float32", "filters": 1248, "kernel_size": [1, 1], "strides": [1, 1], "padding": "same", "data_format": "channels_last", "dilation_rate": [1, 1], "groups": 1, "activation": "sigmoid", "use_bias": true, "kernel_initializer": {"class_name": "VarianceScaling", "config": {"scale": 2.0, "mode": "fan_out", "distribution": "truncated_normal", "seed": null}}, "bias_initializer": {"class_name": "Zeros", "config": {}}, "kernel_regularizer": null, "bias_regularizer": null, "activity_regularizer": null, "kernel_constraint": null, "bias_constraint": null}, "name": "block6g_se_expand", "inbound_nodes": [[["block6g_se_reduce", 0, 0, {}]]]}, {"class_name": "Multiply", "config": {"name": "block6g_se_excite", "trainable": false, "dtype": "float32"}, "name": "block6g_se_excite", "inbound_nodes": [[["block6g_activation", 0, 0, {}], ["block6g_se_expand", 0, 0, {}]]]}, {"class_name": "Conv2D", "config": {"name": "block6g_project_conv", "trainable": false, "dtype": "float32", "filters": 208, "kernel_size": [1, 1], "strides": [1, 1], "padding": "same", "data_format": "channels_last", "dilation_rate": [1, 1], "groups": 1, "activation": "linear", "use_bias": false, "kernel_initializer": {"class_name": "VarianceScaling", "config": {"scale": 2.0, "mode": "fan_out", "distribution": "truncated_normal", "seed": null}}, "bias_initializer": {"class_name": "Zeros", "config": {}}, "kernel_regularizer": null, "bias_regularizer": null, "activity_regularizer": null, "kernel_constraint": null, "bias_constraint": null}, "name": "block6g_project_conv", "inbound_nodes": [[["block6g_se_excite", 0, 0, {}]]]}, {"class_name": "BatchNormalization", "config": {"name": "block6g_project_bn", "trainable": true, "dtype": "float32", "axis": [3], "momentum": 0.9, "epsilon": 0.001, "center": true, "scale": true, "beta_initializer": {"class_name": "Zeros", "config": {}}, "gamma_initializer": {"class_name": "Ones", "config": {}}, "moving_mean_initializer": {"class_name": "Zeros", "config": {}}, "moving_variance_initializer": {"class_name": "Ones", "config": {}}, "beta_regularizer": null, "gamma_regularizer": null, "beta_constraint": null, "gamma_constraint": null}, "name": "block6g_project_bn", "inbound_nodes": [[["block6g_project_conv", 0, 0, {}]]]}, {"class_name": "Add", "config": {"name": "block6g_add", "trainable": true, "dtype": "float32"}, "name": "block6g_add", "inbound_nodes": [[["block6g_project_bn", 0, 0, {}], ["block6f_add", 0, 0, {}]]]}, {"class_name": "Conv2D", "config": {"name": "block6h_expand_conv", "trainable": true, "dtype": "float32", "filters": 1248, "kernel_size": [1, 1], "strides": [1, 1], "padding": "same", "data_format": "channels_last", "dilation_rate": [1, 1], "groups": 1, "activation": "linear", "use_bias": false, "kernel_initializer": {"class_name": "VarianceScaling", "config": {"scale": 2.0, "mode": "fan_out", "distribution": "truncated_normal", "seed": null}}, "bias_initializer": {"class_name": "Zeros", "config": {}}, "kernel_regularizer": null, "bias_regularizer": null, "activity_regularizer": null, "kernel_constraint": null, "bias_constraint": null}, "name": "block6h_expand_conv", "inbound_nodes": [[["block6g_add", 0, 0, {}]]]}, {"class_name": "BatchNormalization", "config": {"name": "block6h_expand_bn", "trainable": true, "dtype": "float32", "axis": [3], "momentum": 0.9, "epsilon": 0.001, "center": true, "scale": true, "beta_initializer": {"class_name": "Zeros", "config": {}}, "gamma_initializer": {"class_name": "Ones", "config": {}}, "moving_mean_initializer": {"class_name": "Zeros", "config": {}}, "moving_variance_initializer": {"class_name": "Ones", "config": {}}, "beta_regularizer": null, "gamma_regularizer": null, "beta_constraint": null, "gamma_constraint": null}, "name": "block6h_expand_bn", "inbound_nodes": [[["block6h_expand_conv", 0, 0, {}]]]}, {"class_name": "Activation", "config": {"name": "block6h_expand_activation", "trainable": true, "dtype": "float32", "activation": "swish"}, "name": "block6h_expand_activation", "inbound_nodes": [[["block6h_expand_bn", 0, 0, {}]]]}, {"class_name": "DepthwiseConv2D", "config": {"name": "block6h_dwconv2", "trainable": true, "dtype": "float32", "kernel_size": [3, 3], "strides": [1, 1], "padding": "same", "data_format": "channels_last", "dilation_rate": [1, 1], "groups": 1, "activation": "linear", "use_bias": false, "bias_initializer": {"class_name": "Zeros", "config": {}}, "bias_regularizer": null, "activity_regularizer": null, "bias_constraint": null, "depth_multiplier": 1, "depthwise_initializer": {"class_name": "VarianceScaling", "config": {"scale": 2.0, "mode": "fan_out", "distribution": "truncated_normal", "seed": null}}, "depthwise_regularizer": null, "depthwise_constraint": null}, "name": "block6h_dwconv2", "inbound_nodes": [[["block6h_expand_activation", 0, 0, {}]]]}, {"class_name": "BatchNormalization", "config": {"name": "block6h_bn", "trainable": true, "dtype": "float32", "axis": [3], "momentum": 0.9, "epsilon": 0.001, "center": true, "scale": true, "beta_initializer": {"class_name": "Zeros", "config": {}}, "gamma_initializer": {"class_name": "Ones", "config": {}}, "moving_mean_initializer": {"class_name": "Zeros", "config": {}}, "moving_variance_initializer": {"class_name": "Ones", "config": {}}, "beta_regularizer": null, "gamma_regularizer": null, "beta_constraint": null, "gamma_constraint": null}, "name": "block6h_bn", "inbound_nodes": [[["block6h_dwconv2", 0, 0, {}]]]}, {"class_name": "Activation", "config": {"name": "block6h_activation", "trainable": true, "dtype": "float32", "activation": "swish"}, "name": "block6h_activation", "inbound_nodes": [[["block6h_bn", 0, 0, {}]]]}, {"class_name": "GlobalAveragePooling2D", "config": {"name": "block6h_se_squeeze", "trainable": true, "dtype": "float32", "data_format": "channels_last", "keepdims": false}, "name": "block6h_se_squeeze", "inbound_nodes": [[["block6h_activation", 0, 0, {}]]]}, {"class_name": "Reshape", "config": {"name": "block6h_se_reshape", "trainable": true, "dtype": "float32", "target_shape": [1, 1, 1248]}, "name": "block6h_se_reshape", "inbound_nodes": [[["block6h_se_squeeze", 0, 0, {}]]]}, {"class_name": "Conv2D", "config": {"name": "block6h_se_reduce", "trainable": true, "dtype": "float32", "filters": 52, "kernel_size": [1, 1], "strides": [1, 1], "padding": "same", "data_format": "channels_last", "dilation_rate": [1, 1], "groups": 1, "activation": "swish", "use_bias": true, "kernel_initializer": {"class_name": "VarianceScaling", "config": {"scale": 2.0, "mode": "fan_out", "distribution": "truncated_normal", "seed": null}}, "bias_initializer": {"class_name": "Zeros", "config": {}}, "kernel_regularizer": null, "bias_regularizer": null, "activity_regularizer": null, "kernel_constraint": null, "bias_constraint": null}, "name": "block6h_se_reduce", "inbound_nodes": [[["block6h_se_reshape", 0, 0, {}]]]}, {"class_name": "Conv2D", "config": {"name": "block6h_se_expand", "trainable": true, "dtype": "float32", "filters": 1248, "kernel_size": [1, 1], "strides": [1, 1], "padding": "same", "data_format": "channels_last", "dilation_rate": [1, 1], "groups": 1, "activation": "sigmoid", "use_bias": true, "kernel_initializer": {"class_name": "VarianceScaling", "config": {"scale": 2.0, "mode": "fan_out", "distribution": "truncated_normal", "seed": null}}, "bias_initializer": {"class_name": "Zeros", "config": {}}, "kernel_regularizer": null, "bias_regularizer": null, "activity_regularizer": null, "kernel_constraint": null, "bias_constraint": null}, "name": "block6h_se_expand", "inbound_nodes": [[["block6h_se_reduce", 0, 0, {}]]]}, {"class_name": "Multiply", "config": {"name": "block6h_se_excite", "trainable": true, "dtype": "float32"}, "name": "block6h_se_excite", "inbound_nodes": [[["block6h_activation", 0, 0, {}], ["block6h_se_expand", 0, 0, {}]]]}, {"class_name": "Conv2D", "config": {"name": "block6h_project_conv", "trainable": true, "dtype": "float32", "filters": 208, "kernel_size": [1, 1], "strides": [1, 1], "padding": "same", "data_format": "channels_last", "dilation_rate": [1, 1], "groups": 1, "activation": "linear", "use_bias": false, "kernel_initializer": {"class_name": "VarianceScaling", "config": {"scale": 2.0, "mode": "fan_out", "distribution": "truncated_normal", "seed": null}}, "bias_initializer": {"class_name": "Zeros", "config": {}}, "kernel_regularizer": null, "bias_regularizer": null, "activity_regularizer": null, "kernel_constraint": null, "bias_constraint": null}, "name": "block6h_project_conv", "inbound_nodes": [[["block6h_se_excite", 0, 0, {}]]]}, {"class_name": "BatchNormalization", "config": {"name": "block6h_project_bn", "trainable": true, "dtype": "float32", "axis": [3], "momentum": 0.9, "epsilon": 0.001, "center": true, "scale": true, "beta_initializer": {"class_name": "Zeros", "config": {}}, "gamma_initializer": {"class_name": "Ones", "config": {}}, "moving_mean_initializer": {"class_name": "Zeros", "config": {}}, "moving_variance_initializer": {"class_name": "Ones", "config": {}}, "beta_regularizer": null, "gamma_regularizer": null, "beta_constraint": null, "gamma_constraint": null}, "name": "block6h_project_bn", "inbound_nodes": [[["block6h_project_conv", 0, 0, {}]]]}, {"class_name": "Add", "config": {"name": "block6h_add", "trainable": true, "dtype": "float32"}, "name": "block6h_add", "inbound_nodes": [[["block6h_project_bn", 0, 0, {}], ["block6g_add", 0, 0, {}]]]}, {"class_name": "Conv2D", "config": {"name": "block6i_expand_conv", "trainable": true, "dtype": "float32", "filters": 1248, "kernel_size": [1, 1], "strides": [1, 1], "padding": "same", "data_format": "channels_last", "dilation_rate": [1, 1], "groups": 1, "activation": "linear", "use_bias": false, "kernel_initializer": {"class_name": "VarianceScaling", "config": {"scale": 2.0, "mode": "fan_out", "distribution": "truncated_normal", "seed": null}}, "bias_initializer": {"class_name": "Zeros", "config": {}}, "kernel_regularizer": null, "bias_regularizer": null, "activity_regularizer": null, "kernel_constraint": null, "bias_constraint": null}, "name": "block6i_expand_conv", "inbound_nodes": [[["block6h_add", 0, 0, {}]]]}, {"class_name": "BatchNormalization", "config": {"name": "block6i_expand_bn", "trainable": true, "dtype": "float32", "axis": [3], "momentum": 0.9, "epsilon": 0.001, "center": true, "scale": true, "beta_initializer": {"class_na…
{"scale": 2.0, "mode": "fan_out", "distribution": "truncated_normal", "seed": null}}, "bias_initializer": {"class_name": "Zeros", "config": {}}, "kernel_regularizer": null, "bias_regularizer": null, "activity_regularizer": null, "kernel_constraint": null, "bias_constraint": null}, "name": "block6i_se_expand", "inbound_nodes": [[["block6i_se_reduce", 0, 0, {}]]]}, {"class_name": "Multiply", "config": {"name": "block6i_se_excite", "trainable": true, "dtype": "float32"}, "name": "block6i_se_excite", "inbound_nodes": [[["block6i_activation", 0, 0, {}], ["block6i_se_expand", 0, 0, {}]]]}, {"class_name": "Conv2D", "config": {"name": "block6i_project_conv", "trainable": true, "dtype": "float32", "filters": 208, "kernel_size": [1, 1], "strides": [1, 1], "padding": "same", "data_format": "channels_last", "dilation_rate": [1, 1], "groups": 1, "activation": "linear", "use_bias": false, "kernel_initializer": {"class_name": "VarianceScaling", "config": {"scale": 2.0, "mode": "fan_out", "distribution": "truncated_normal", "seed": null}}, "bias_initializer": {"class_name": "Zeros", "config": {}}, "kernel_regularizer": null, "bias_regularizer": null, "activity_regularizer": null, "kernel_constraint": null, "bias_constraint": null}, "name": "block6i_project_conv", "inbound_nodes": [[["block6i_se_excite", 0, 0, {}]]]}, {"class_name": "BatchNormalization", "config": {"name": "block6i_project_bn", "trainable": true, "dtype": "float32", "axis": [3], "momentum": 0.9, "epsilon": 0.001, "center": true, "scale": true, "beta_initializer": {"class_name": "Zeros", "config": {}}, "gamma_initializer": {"class_name": "Ones", "config": {}}, "moving_mean_initializer": {"class_name": "Zeros", "config": {}}, "moving_variance_initializer": {"class_name": "Ones", "config": {}}, "beta_regularizer": null, "gamma_regularizer": null, "beta_constraint": null, "gamma_constraint": null}, "name": "block6i_project_bn", "inbound_nodes": [[["block6i_project_conv", 0, 0, {}]]]}, {"class_name": "Add", "config": {"name": "block6i_add", "trainable": true, "dtype": "float32"}, "name": "block6i_add", "inbound_nodes": [[["block6i_project_bn", 0, 0, {}], ["block6h_add", 0, 0, {}]]]}, {"class_name": "Conv2D", "config": {"name": "block6j_expand_conv", "trainable": true, "dtype": "float32", "filters": 1248, "kernel_size": [1, 1], "strides": [1, 1], "padding": "same", "data_format": "channels_last", "dilation_rate": [1, 1], "groups": 1, "activation": "linear", "use_bias": false, "kernel_initializer": {"class_name": "VarianceScaling", "config": {"scale": 2.0, "mode": "fan_out", "distribution": "truncated_normal", "seed": null}}, "bias_initializer": {"class_name": "Zeros", "config": {}}, "kernel_regularizer": null, "bias_regularizer": null, "activity_regularizer": null, "kernel_constraint": null, "bias_constraint": null}, "name": "block6j_expand_conv", "inbound_nodes": [[["block6i_add", 0, 0, {}]]]}, {"class_name": "BatchNormalization", "config": {"name": "block6j_expand_bn", "trainable": true, "dtype": "float32", "axis": [3], "momentum": 0.9, "epsilon": 0.001, "center": true, "scale": true, "beta_initializer": {"class_name": "Zeros", "config": {}}, "gamma_initializer": {"class_name": "Ones", "config": {}}, "moving_mean_initializer": {"class_name": "Zeros", "config": {}}, "moving_variance_initializer": {"class_name": "Ones", "config": {}}, "beta_regularizer": null, "gamma_regularizer": null, "beta_constraint": null, "gamma_constraint": null}, "name": "block6j_expand_bn", "inbound_nodes": [[["block6j_expand_conv", 0, 0, {}]]]}, {"class_name": "Activation", "config": {"name": "block6j_expand_activation", "trainable": true, "dtype": "float32", "activation": "swish"}, "name": "block6j_expand_activation", "inbound_nodes": [[["block6j_expand_bn", 0, 0, {}]]]}, {"class_name": "DepthwiseConv2D", "config": {"name": "block6j_dwconv2", "trainable": true, "dtype": "float32", "kernel_size": [3, 3], "strides": [1, 1], "padding": "same", "data_format": "channels_last", "dilation_rate": [1, 1], "groups": 1, "activation": "linear", "use_bias": false, "bias_initializer": {"class_name": "Zeros", "config": {}}, "bias_regularizer": null, "activity_regularizer": null, "bias_constraint": null, "depth_multiplier": 1, "depthwise_initializer": {"class_name": "VarianceScaling", "config": {"scale": 2.0, "mode": "fan_out", "distribution": "truncated_normal", "seed": null}}, "depthwise_regularizer": null, "depthwise_constraint": null}, "name": "block6j_dwconv2", "inbound_nodes": [[["block6j_expand_activation", 0, 0, {}]]]}, {"class_name": "BatchNormalization", "config": {"name": "block6j_bn", "trainable": true, "dtype": "float32", "axis": [3], "momentum": 0.9, "epsilon": 0.001, "center": true, "scale": true, "beta_initializer": {"class_name": "Zeros", "config": {}}, "gamma_initializer": {"class_name": "Ones", "config": {}}, "moving_mean_initializer": {"class_name": "Zeros", "config": {}}, "moving_variance_initializer": {"class_name": "Ones", "config": {}}, "beta_regularizer": null, "gamma_regularizer": null, "beta_constraint": null, "gamma_constraint": null}, "name": "block6j_bn", "inbound_nodes": [[["block6j_dwconv2", 0, 0, {}]]]}, {"class_name": "Activation", "config": {"name": "block6j_activation", "trainable": true, "dtype": "float32", "activation": "swish"}, "name": "block6j_activation", "inbound_nodes": [[["block6j_bn", 0, 0, {}]]]}, {"class_name": "GlobalAveragePooling2D", "config": {"name": "block6j_se_squeeze", "trainable": true, "dtype": "float32", "data_format": "channels_last", "keepdims": false}, "name": "block6j_se_squeeze", "inbound_nodes": [[["block6j_activation", 0, 0, {}]]]}, {"class_name": "Reshape", "config": {"name": "block6j_se_reshape", "trainable": true, "dtype": "float32", "target_shape": [1, 1, 1248]}, "name": "block6j_se_reshape", "inbound_nodes": [[["block6j_se_squeeze", 0, 0, {}]]]}, {"class_name": "Conv2D", "config": {"name": "block6j_se_reduce", "trainable": true, "dtype": "float32", "filters": 52, "kernel_size": [1, 1], "strides": [1, 1], "padding": "same", "data_format": "channels_last", "dilation_rate": [1, 1], "groups": 1, "activation": "swish", "use_bias": true, "kernel_initializer": {"class_name": "VarianceScaling", "config": {"scale": 2.0, "mode": "fan_out", "distribution": "truncated_normal", "seed": null}}, "bias_initializer": {"class_name": "Zeros", "config": {}}, "kernel_regularizer": null, "bias_regularizer": null, "activity_regularizer": null, "kernel_constraint": null, "bias_constraint": null}, "name": "block6j_se_reduce", "inbound_nodes": [[["block6j_se_reshape", 0, 0, {}]]]}, {"class_name": "Conv2D", "config": {"name": "block6j_se_expand", "trainable": true, "dtype": "float32", "filters": 1248, "kernel_size": [1, 1], "strides": [1, 1], "padding": "same", "data_format": "channels_last", "dilation_rate": [1, 1], "groups": 1, "activation": "sigmoid", "use_bias": true, "kernel_initializer": {"class_name": "VarianceScaling", "config": {"scale": 2.0, "mode": "fan_out", "distribution": "truncated_normal", "seed": null}}, "bias_initializer": {"class_name": "Zeros", "config": {}}, "kernel_regularizer": null, "bias_regularizer": null, "activity_regularizer": null, "kernel_constraint": null, "bias_constraint": null}, "name": "block6j_se_expand", "inbound_nodes": [[["block6j_se_reduce", 0, 0, {}]]]}, {"class_name": "Multiply", "config": {"name": "block6j_se_excite", "trainable": true, "dtype": "float32"}, "name": "block6j_se_excite", "inbound_nodes": [[["block6j_activation", 0, 0, {}], ["block6j_se_expand", 0, 0, {}]]]}, {"class_name": "Conv2D", "config": {"name": "block6j_project_conv", "trainable": true, "dtype": "float32", "filters": 208, "kernel_size": [1, 1], "strides": [1, 1], "padding": "same", "data_format": "channels_last", "dilation_rate": [1, 1], "groups": 1, "activation": "linear", "use_bias": false, "kernel_initializer": {"class_name": "VarianceScaling", "config": {"scale": 2.0, "mode": "fan_out", "distribution": "truncated_normal", "seed": null}}, "bias_initializer": {"class_name": "Zeros", "config": {}}, "kernel_regularizer": null, "bias_regularizer": null, "activity_regularizer": null, "kernel_constraint": null, "bias_constraint": null}, "name": "block6j_project_conv", "inbound_nodes": [[["block6j_se_excite", 0, 0, {}]]]}, {"class_name": "BatchNormalization", "config": {"name": "block6j_project_bn", "trainable": true, "dtype": "float32", "axis": [3], "momentum": 0.9, "epsilon": 0.001, "center": true, "scale": true, "beta_initializer": {"class_name": "Zeros", "config": {}}, "gamma_initializer": {"class_name": "Ones", "config": {}}, "moving_mean_initializer": {"class_name": "Zeros", "config": {}}, "moving_variance_initializer": {"class_name": "Ones", "config": {}}, "beta_regularizer": null, "gamma_regularizer": null, "beta_constraint": null, "gamma_constraint": null}, "name": "block6j_project_bn", "inbound_nodes": [[["block6j_project_conv", 0, 0, {}]]]}, {"class_name": "Add", "config": {"name": "block6j_add", "trainable": true, "dtype": "float32"}, "name": "block6j_add", "inbound_nodes": [[["block6j_project_bn", 0, 0, {}], ["block6i_add", 0, 0, {}]]]}, {"class_name": "Conv2D", "config": {"name": "top_conv", "trainable": true, "dtype": "float32", "filters": 1408, "kernel_size": [1, 1], "strides": [1, 1], "padding": "same", "data_format": "channels_last", "dilation_rate": [1, 1], "groups": 1, "activation": "linear", "use_bias": false, "kernel_initializer": {"class_name": "VarianceScaling", "config": {"scale": 2.0, "mode": "fan_out", "distribution": "truncated_normal", "seed": null}}, "bias_initializer": {"class_name": "Zeros", "config": {}}, "kernel_regularizer": null, "bias_regularizer": null, "activity_regularizer": null, "kernel_constraint": null, "bias_constraint": null}, "name": "top_conv", "inbound_nodes": [[["block6j_add", 0, 0, {}]]]}, {"class_name": "BatchNormalization", "config": {"name": "top_bn", "trainable": true, "dtype": "float32", "axis": [3], "momentum": 0.9, "epsilon": 0.001, "center": true, "scale": true, "beta_initializer": {"class_name": "Zeros", "config": {}}, "gamma_initializer": {"class_name": "Ones", "config": {}}, "moving_mean_initializer": {"class_name": "Zeros", "config": {}}, "moving_variance_initializer": {"class_name": "Ones", "config": {}}, "beta_regularizer": null, "gamma_regularizer": null, "beta_constraint": null, "gamma_constraint": null}, "name": "top_bn", "inbound_nodes": [[["top_conv", 0, 0, {}]]]}, {"class_name": "Activation", "config": {"name": "top_activation", "trainable": true, "dtype": "float32", "activation": "swish"}, "name": "top_activation", "inbound_nodes": [[["top_bn", 0, 0, {}]]]}], "input_layers": [["input_1", 0, 0]], "output_layers": [["top_activation", 0, 0]]}}, {"class_name": "GlobalAveragePooling2D", "config": {"name": "global_average_pooling2d", "trainable": true, "dtype": "float32", "data_format": "channels_last", "keepdims": false}}, {"class_name": "Dense", "config": {"name": "dense", "trainable": true, "dtype": "float32", "units": 64, "activation": "linear", "use_bias": true, "kernel_initializer": {"class_name": "GlorotUniform", "config": {"seed": null}}, "bias_initializer": {"class_name": "Zeros", "config": {}}, "kernel_regularizer": null, "bias_regularizer": null, "activity_regularizer": null, "kernel_constraint": null, "bias_constraint": null}}, {"class_name": "Dropout", "config": {"name": "dropout", "trainable": true, "dtype": "float32", "rate": 0.2, "noise_shape": null, "seed": null}}, {"class_name": "Dense", "config": {"name": "dense_1", "trainable": true, "dtype": "float32", "units": 64, "activation": "linear", "use_bias": true, "kernel_initializer": {"class_name": "GlorotUniform", "config": {"seed": null}}, "bias_initializer": {"class_name": "Zeros", "config": {}}, "kernel_regularizer": null, "bias_regularizer": null, "activity_regularizer": null, "kernel_constraint": null, "bias_constraint": null}}, {"class_name": "Dropout", "config": {"name": "dropout_1", "trainable": true, "dtype": "float32", "rate": 0.2, "noise_shape": null, "seed": null}}, {"class_name": "Dense", "config": {"name": "dense_2", "trainable": true, "dtype": "float32", "units": 16, "activation": "linear", "use_bias": true, "kernel_initializer": {"class_name": "GlorotUniform", "config": {"seed": null}}, "bias_initializer": {"class_name": "Zeros", "config": {}}, "kernel_regularizer": null, "bias_regularizer": null, "activity_regularizer": null, "kernel_constraint": null, "bias_constraint": null}}, {"class_name": "Dense", "config": {"name": "dense_3", "trainable": true, "dtype": "float32", "units": 5, "activation": "softmax", "use_bias": true, "kernel_initializer": {"class_name": "GlorotUniform", "config": {"seed": null}}, "bias_initializer": {"class_name": "Zeros", "config": {}}, "kernel_regularizer": null, "bias_regularizer": null, "activity_regularizer": null, "kernel_constraint": null, "bias_constraint": null}}]}}, "training_config": {"loss": {"class_name": "SparseCategoricalCrossentropy", "config": {"reduction": "auto", "name": "sparse_categorical_crossentropy", "from_logits": false}}, "metrics": [[{"class_name": "MeanMetricWrapper", "config": {"name": "accuracy", "dtype": "float32", "fn": "sparse_categorical_accuracy"}}]], "weighted_metrics": null, "loss_weights": null, "optimizer_config": {"class_name": "Adam", "config": {"name": "Adam", "learning_rate": 9.999999747378752e-06, "decay": 0.0, "beta_1": 0.8999999761581421, "beta_2": 0.9990000128746033, "epsilon": 1e-07, "amsgrad": false}}}}, "weightsManifest": [{"paths": ["group1-shard1of9.bin", "group1-shard2of9.bin", "group1-shard3of9.bin", "group1-shard4of9.bin", "group1-shard5of9.bin", "group1-shard6of9.bin", "group1-shard7of9.bin", "group1-shard8of9.bin", "group1-shard9of9.bin"], "weights": [{"name": "dense/kernel", "shape": [1408, 64], "dtype": "float32"}, {"name": "dense/bias", "shape": [64], "dtype": "float32"}, {"name": "dense_1/kernel", "shape": [64, 64], "dtype": "float32"}, {"name": "dense_1/bias", "shape": [64], "dtype": "float32"}, {"name": "dense_2/kernel", "shape": [64, 16], "dtype": "float32"}, {"name": "dense_2/bias", "shape": [16], "dtype": "float32"}, {"name": "dense_3/kernel", "shape": [16, 5], "dtype": "float32"}, {"name": "dense_3/bias", "shape": [5], "dtype": "float32"}, {"name": "block6g_project_bn/gamma", "shape": [208], "dtype": "float32"}, {"name": "block6g_project_bn/beta", "shape": [208], "dtype": "float32"}, {"name": "block6h_expand_conv/kernel", "shape": [1, 1, 208, 1248], "dtype": "float32"}, {"name": "block6h_expand_bn/gamma", "shape": [1248], "dtype": "float32"}, {"name": "block6h_expand_bn/beta", "shape": [1248], "dtype": "float32"}, {"name": "block6h_dwconv2/depthwise_kernel", "shape": [3, 3, 1248, 1], "dtype": "float32"}, {"name": "block6h_bn/gamma", "shape": [1248], "dtype": "float32"}, {"name": "block6h_bn/beta", "shape": [1248], "dtype": "float32"}, {"name": "block6h_se_reduce/kernel", "shape": [1, 1, 1248, 52], "dtype": "float32"}, {"name": "block6h_se_reduce/bias", "shape": [52], "dtype": "float32"}, {"name": "block6h_se_expand/kernel", "shape": [1, 1, 52, 1248], "dtype": "float32"}, {"name": "block6h_se_expand/bias", "shape": [1248], "dtype": "float32"}, {"name": "block6h_project_conv/kernel", "shape": [1, 1, 1248, 208], "dtype": "float32"}, {"name": "block6h_project_bn/gamma", "shape": [208], "dtype": "float32"}, {"name": "block6h_project_bn/beta", "shape": [208], "dtype": "float32"}, {"name": "block6i_expand_conv/kernel", "shape": [1, 1, 208, 1248], "dtype": "float32"}, {"name": "block6i_expand_bn/gamma", "shape": [1248], "dtype": "float32"}, {"name": "block6i_expand_bn/beta", "shape": [1248], "dtype": "float32"}, {"name": "block6i_dwconv2/depthwise_kernel", "shape": [3, 3, 1248, 1], "dtype": "float32"}, {"name": "block6i_bn/gamma", "shape": [1248], "dtype": "float32"}, {"name": "block6i_bn/beta", "shape": [1248], "dtype": "float32"}, {"name": "block6i_se_reduce/kernel", "shape": [1, 1, 1248, 52], "dtype": "float32"}, {"name": "block6i_se_reduce/bias", "shape": [52], "dtype": "float32"}, {"name": "block6i_se_expand/kernel", "shape": [1, 1, 52, 1248], "dtype": "float32"}, {"name": "block6i_se_expand/bias", "shape": [1248], "dtype": "float32"}, {"name": "block6i_project_conv/kernel", "shape": [1, 1, 1248, 208], "dtype": "float32"}, {"name": "block6i_project_bn/gamma", "shape": [208], "dtype": "float32"}, {"name": "block6i_project_bn/beta", "shape": [208], "dtype": "float32"}, {"name": "block6j_expand_conv/kernel", "shape": [1, 1, 208, 1248], "dtype": "float32"}, {"name": "block6j_expand_bn/gamma", "shape": [1248], "dtype": "float32"}, {"name": "block6j_expand_bn/beta", "shape": [1248], "dtype": "float32"}, {"name": "block6j_dwconv2/depthwise_kernel", "shape": [3, 3, 1248, 1], "dtype": "float32"}, {"name": "block6j_bn/gamma", "shape": [1248], "dtype": "float32"}, {"name": "block6j_bn/beta", "shape": [1248], "dtype": "float32"}, {"name": "block6j_se_reduce/kernel", "shape": [1, 1, 1248, 52], "dtype": "float32"}, {"name": "block6j_se_reduce/bias", "shape": [52], "dtype": "float32"}, {"name": "block6j_se_expand/kernel", "shape": [1, 1, 52, 1248], "dtype": "float32"}, {"name": "block6j_se_expand/bias", "shape": [1248], "dtype": "float32"}, {"name": "block6j_project_conv/kernel", "shape": [1, 1, 1248, 208], "dtype": "float32"}, {"name": "block6j_project_bn/gamma", "shape": [208], "dtype": "float32"}, {"name": "block6j_project_bn/beta", "shape": [208], "dtype": "float32"}, {"name": "top_conv/kernel", "shape": [1, 1, 208, 1408], "dtype": "float32"}, {"name": "top_bn/gamma", "shape": [1408], "dtype": "float32"}, {"name": "top_bn/beta", "shape": [1408], "dtype": "float32"}, {"name": "stem_conv/kernel", "shape": [3, 3, 3, 32], "dtype": "float32"}, {"name": "stem_bn/gamma", "shape": [32], "dtype": "float32"}, {"name": "stem_bn/beta", "shape": [32], "dtype": "float32"}, {"name": "stem_bn/moving_mean", "shape": [32], "dtype": "float32"}, {"name": "stem_bn/moving_variance", "shape": [32], "dtype": "float32"}, {"name": "block1a_project_conv/kernel", "shape": [3, 3, 32, 16], "dtype": "float32"}, {"name": "block1a_project_bn/gamma", "shape": [16], "dtype": "float32"}, {"name": "block1a_project_bn/beta", "shape": [16], "dtype": "float32"}, {"name": "block1a_project_bn/moving_mean", "shape": [16], "dtype": "float32"}, {"name": "block1a_project_bn/moving_variance", "shape": [16], "dtype": "float32"}, {"name": "block1b_project_conv/kernel", "shape": [3, 3, 16, 16], "dtype": "float32"}, {"name": "block1b_project_bn/gamma", "shape": [16], "dtype": "float32"}, {"name": "block1b_project_bn/beta", "shape": [16], "dtype": "float32"}, {"name": "block1b_project_bn/moving_mean", "shape": [16], "dtype": "float32"}, {"name": "block1b_project_bn/moving_variance", "shape": [16], "dtype": "float32"}, {"name": "block2a_expand_conv/kernel", "shape": [3, 3, 16, 64], "dtype": "float32"}, {"name": "block2a_expand_bn/gamma", "shape": [64], "dtype": "float32"}, {"name": "block2a_expand_bn/beta", "shape": [64], "dtype": "float32"}, {"name": "block2a_expand_bn/moving_mean", "shape": [64], "dtype": "float32"}, {"name": "block2a_expand_bn/moving_variance", "shape": [64], "dtype": "float32"}, {"name": "block2a_project_conv/kernel", "shape": [1, 1, 64, 32], "dtype": "float32"}, {"name": "block2a_project_bn/gamma", "shape": [32], "dtype": "float32"}, {"name": "block2a_project_bn/beta", "shape": [32], "dtype": "float32"}, {"name": "block2a_project_bn/moving_mean", "shape": [32], "dtype": "float32"}, {"name": "block2a_project_bn/moving_variance", "shape": [32], "dtype": "float32"}, {"name": "block2b_expand_conv/kernel", "shape": [3, 3, 32, 128], "dtype": "float32"}, {"name": "block2b_expand_bn/gamma", "shape": [128], "dtype": "float32"}, {"name": "block2b_expand_bn/beta", "shape": [128], "dtype": "float32"}, {"name": "block2b_expand_bn/moving_mean", "shape": [128], "dtype": "float32"}, {"name": "block2b_expand_bn/moving_variance", "shape": [128], "dtype": "float32"}, {"name": "block2b_project_conv/kernel", "shape": [1, 1, 128, 32], "dtype": "float32"}, {"name": "block2b_project_bn/gamma", "shape": [32], "dtype": "float32"}, {"name": "block2b_project_bn/beta", "shape": [32], "dtype": "float32"}, {"name": "block2b_project_bn/moving_mean", "shape": [32], "dtype": "float32"}, {"name": "block2b_project_bn/moving_variance", "shape": [32], "dtype": "float32"}, {"name": "block2c_expand_conv/kernel", "shape": [3, 3, 32, 128], "dtype": "float32"}, {"name": "block2c_expand_bn/gamma", "shape": [128], "dtype": "float32"}, {"name": "block2c_expand_bn/beta", "shape": [128], "dtype": "float32"}, {"name": "block2c_expand_bn/moving_mean", "shape": [128], "dtype": "float32"}, {"name": "block2c_expand_bn/moving_variance", "shape": [128], "dtype": "float32"}, {"name": "block2c_project_conv/kernel", "shape": [1, 1, 128, 32], "dtype": "float32"}, {"name": "block2c_project_bn/gamma", "shape": [32], "dtype": "float32"}, {"name": "block2c_project_bn/beta", "shape": [32], "dtype": "float32"}, {"name": "block2c_project_bn/moving_mean", "shape": [32], "dtype": "float32"}, {"name": "block2c_project_bn/moving_variance", "shape": [32], "dtype": "float32"}, {"name": "block3a_expand_conv/kernel", "shape": [3, 3, 32, 128], "dtype": "float32"}, {"name": "block3a_expand_bn/gamma", "shape": [128], "dtype": "float32"}, {"name": "block3a_expand_bn/beta", "shape": [128], "dtype": "float32"}, {"name": "block3a_expand_bn/moving_mean", "shape": [128], "dtype": "float32"}, {"name": "block3a_expand_bn/moving_variance", "shape": [128], "dtype": "float32"}, {"name": "block3a_project_conv/kernel", "shape": [1, 1, 128, 56], "dtype": "float32"}, {"name": "block3a_project_bn/gamma", "shape": [56], "dtype": "float32"}, {"name": "block3a_project_bn/beta", "shape": [56], "dtype": "float32"}, {"name": "block3a_project_bn/moving_mean", "shape": [56], "dtype": "float32"}, {"name": "block3a_project_bn/moving_variance", "shape": [56], "dtype": "float32"}, {"name": "block3b_expand_conv/kernel", "shape": [3, 3, 56, 224], "dtype": "float32"}, {"name": "block3b_expand_bn/gamma", "shape": [224], "dtype": "float32"}, {"name": "block3b_expand_bn/beta", "shape": [224], "dtype": "float32"}, {"name": "block3b_expand_bn/moving_mean", "shape": [224], "dtype": "float32"}, {"name": "block3b_expand_bn/moving_variance", "shape": [224], "dtype": "float32"}, {"name": "block3b_project_conv/kernel", "shape": [1, 1, 224, 56], "dtype": "float32"}, {"name": "block3b_project_bn/gamma", "shape": [56], "dtype": "float32"}, {"name": "block3b_project_bn/beta", "shape": [56], "dtype": "float32"}, {"name": "block3b_project_bn/moving_mean", "shape": [56], "dtype": "float32"}, {"name": "block3b_project_bn/moving_variance", "shape": [56], "dtype": "float32"}, {"name": "block3c_expand_conv/kernel", "shape": [3, 3, 56, 224], "dtype": "float32"}, {"name": "block3c_expand_bn/gamma", "shape": [224], "dtype": "float32"}, {"name": "block3c_expand_bn/beta", "shape": [224], "dtype": "float32"}, {"name": "block3c_expand_bn/moving_mean", "shape": [224], "dtype": "float32"}, {"name": "block3c_expand_bn/moving_variance", "shape": [224], "dtype": "float32"}, {"name": "block3c_project_conv/kernel", "shape": [1, 1, 224, 56], "dtype": "float32"}, {"name": "block3c_project_bn/gamma", "shape": [56], "dtype": "float32"}, {"name": "block3c_project_bn/beta", "shape": [56], "dtype": "float32"}, {"name": "block3c_project_bn/moving_mean", "shape": [56], "dtype": "float32"}, {"name": "block3c_project_bn/moving_variance", "shape": [56], "dtype": "float32"}, {"name": "block4a_expand_conv/kernel", "shape": [1, 1, 56, 224], "dtype": "float32"}, {"name": "block4a_expand_bn/gamma", "shape": [224], "dtype": "float32"}, {"name": "block4a_expand_bn/beta", "shape": [224], "dtype": "float32"}, {"name": "block4a_expand_bn/moving_mean", "shape": [224], "dtype": "float32"}, {"name": "block4a_expand_bn/moving_variance", "shape": [224], "dtype": "float32"}, {"name": "block4a_dwconv2/depthwise_kernel", "shape": [3, 3, 224, 1], "dtype": "float32"}, {"name": "block4a_bn/gamma", "shape": [224], "dtype": "float32"}, {"name": "block4a_bn/beta", "shape": [224], "dtype": "float32"}, {"name": "block4a_bn/moving_mean", "shape": [224], "dtype": "float32"}, {"name": "block4a_bn/moving_variance", "shape": [224], "dtype": "float32"}, {"name": "block4a_se_reduce/kernel", "shape": [1, 1, 224, 14], "dtype": "float32"}, {"name": "block4a_se_reduce/bias", "shape": [14], "dtype": "float32"}, {"name": "block4a_se_expand/kernel", "shape": [1, 1, 14, 224], "dtype": "float32"}, {"name": "block4a_se_expand/bias", "shape": [224], "dtype": "float32"}, {"name": "block4a_project_conv/kernel", "shape": [1, 1, 224, 104], "dtype": "float32"}, {"name": "block4a_project_bn/gamma", "shape": [104], "dtype": "float32"}, {"name": "block4a_project_bn/beta", "shape": [104], "dtype": "float32"}, {"name": "block4a_project_bn/moving_mean", "shape": [104], "dtype": "float32"}, {"name": "block4a_project_bn/moving_variance", "shape": [104], "dtype": "float32"}, {"name": "block4b_expand_conv/kernel", "shape": [1, 1, 104, 416], "dtype": "float32"}, {"name": "block4b_expand_bn/gamma", "shape": [416], "dtype": "float32"}, {"name": "block4b_expand_bn/beta", "shape": [416], "dtype": "float32"}, {"name": "block4b_expand_bn/moving_mean", "shape": [416], "dtype": "float32"}, {"name": "block4b_expand_bn/moving_variance", "shape": [416], "dtype": "float32"}, {"name": "block4b_dwconv2/depthwise_kernel", "shape": [3, 3, 416, 1], "dtype": "float32"}, {"name": "block4b_bn/gamma", "shape": [416], "dtype": "float32"}, {"name": "block4b_bn/beta", "shape": [416], "dtype": "float32"}, {"name": "block4b_bn/moving_mean", "shape": [416], "dtype": "float32"}, {"name": "block4b_bn/moving_variance", "shape": [416], "dtype": "float32"}, {"name": "block4b_se_reduce/kernel", "shape": [1, 1, 416, 26], "dtype": "float32"}, {"name": "block4b_se_reduce/bias", "shape": [26], "dtype": "float32"}, {"name": "block4b_se_expand/kernel", "shape": [1, 1, 26, 416], "dtype": "float32"}, {"name": "block4b_se_expand/bias", "shape": [416], "dtype": "float32"}, {"name": "block4b_project_conv/kernel", "shape": [1, 1, 416, 104], "dtype": "float32"}, {"name": "block4b_project_bn/gamma", "shape": [104], "dtype": "float32"}, {"name": "block4b_project_bn/beta", "shape": [104], "dtype": "float32"}, {"name": "block4b_project_bn/moving_mean", "shape": [104], "dtype": "float32"}, {"name": "block4b_project_bn/moving_variance", "shape": [104], "dtype": "float32"}, {"name": "block4c_expand_conv/kernel", "shape": [1, 1, 104, 416], "dtype": "float32"}, {"name": "block4c_expand_bn/gamma", "shape": [416], "dtype": "float32"}, {"name": "block4c_expand_bn/beta", "shape": [416], "dtype": "float32"}, {"name": "block4c_expand_bn/moving_mean", "shape": [416], "dtype": "float32"}, {"name": "block4c_expand_bn/moving_variance", "shape": [416], "dtype": "float32"}, {"name": "block4c_dwconv2/depthwise_kernel", "shape": [3, 3, 416, 1], "dtype": "float32"}, {"name": "block4c_bn/gamma", "shape": [416], "dtype": "float32"}, {"name": "block4c_bn/beta", "shape": [416], "dtype": "float32"}, {"name": "block4c_bn/moving_mean", "shape": [416], "dtype": "float32"}, {"name": "block4c_bn/moving_variance", "shape": [416], "dtype": "float32"}, {"name": "block4c_se_reduce/kernel", "shape": [1, 1, 416, 26], "dtype": "float32"}, {"name": "block4c_se_reduce/bias", "shape": [26], "dtype": "float32"}, {"name": "block4c_se_expand/kernel", "shape": [1, 1, 26, 416], "dtype": "float32"}, {"name": "block4c_se_expand/bias", "shape": [416], "dtype": "float32"}, {"name": "block4c_project_conv/kernel", "shape": [1, 1, 416, 104], "dtype": "float32"}, {"name": "block4c_project_bn/gamma", "shape": [104], "dtype": "float32"}, {"name": "block4c_project_bn/beta", "shape": [104], "dtype": "float32"}, {"name": "block4c_project_bn/moving_mean", "shape": [104], "dtype": "float32"}, {"name": "block4c_project_bn/moving_variance", "shape": [104], "dtype": "float32"}, {"name": "block4d_expand_conv/kernel", "shape": [1, 1, 104, 416], "dtype": "float32"}, {"name": "block4d_expand_bn/gamma", "shape": [416], "dtype": "float32"}, {"name": "block4d_expand_bn/beta", "shape": [416], "dtype": "float32"}, {"name": "block4d_expand_bn/moving_mean", "shape": [416], "dtype": "float32"}, {"name": "block4d_expand_bn/moving_variance", "shape": [416], "dtype": "float32"}, {"name": "block4d_dwconv2/depthwise_kernel", "shape": [3, 3, 416, 1], "dtype": "float32"}, {"name": "block4d_bn/gamma", "shape": [416], "dtype": "float32"}, {"name": "block4d_bn/beta", "shape": [416], "dtype": "float32"}, {"name": "block4d_bn/moving_mean", "shape": [416], "dtype": "float32"}, {"name": "block4d_bn/moving_variance", "shape": [416], "dtype": "float32"}, {"name": "block4d_se_reduce/kernel", "shape": [1, 1, 416, 26], "dtype": "float32"}, {"name": "block4d_se_reduce/bias", "shape": [26], "dtype": "float32"}, {"name": "block4d_se_expand/kernel", "shape": [1, 1, 26, 416], "dtype": "float32"}, {"name": "block4d_se_expand/bias", "shape": [416], "dtype": "float32"}, {"name": "block4d_project_conv/kernel", "shape": [1, 1, 416, 104], "dtype": "float32"}, {"name": "block4d_project_bn/gamma", "shape": [104], "dtype": "float32"}, {"name": "block4d_project_bn/beta", "shape": [104], "dtype": "float32"}, {"name": "block4d_project_bn/moving_mean", "shape": [104], "dtype": "float32"}, {"name": "block4d_project_bn/moving_variance", "shape": [104], "dtype": "float32"}, {"name": "block5a_expand_conv/kernel", "shape": [1, 1, 104, 624], "dtype": "float32"}, {"name": "block5a_expand_bn/gamma", "shape": [624], "dtype": "float32"}, {"name": "block5a_expand_bn/beta", "shape": [624], "dtype": "float32"}, {"name": "block5a_expand_bn/moving_mean", "shape": [624], "dtype": "float32"}, {"name": "block5a_expand_bn/moving_variance", "shape": [624], "dtype": "float32"}, {"name": "block5a_dwconv2/depthwise_kernel", "shape": [3, 3, 624, 1], "dtype": "float32"}, {"name": "block5a_bn/gamma", "shape": [624], "dtype": "float32"}, {"name": "block5a_bn/beta", "shape": [624], "dtype": "float32"}, {"name": "block5a_bn/moving_mean", "shape": [624], "dtype": "float32"}, {"name": "block5a_bn/moving_variance", "shape": [624], "dtype": "float32"}, {"name": "block5a_se_reduce/kernel", "shape": [1, 1, 624, 26], "dtype": "float32"}, {"name": "block5a_se_reduce/bias", "shape": [26], "dtype": "float32"}, {"name": "block5a_se_expand/kernel", "shape": [1, 1, 26, 624], "dtype": "float32"}, {"name": "block5a_se_expand/bias", "shape": [624], "dtype": "float32"}, {"name": "block5a_project_conv/kernel", "shape": [1, 1, 624, 120], "dtype": "float32"}, {"name": "block5a_project_bn/gamma", "shape": [120], "dtype": "float32"}, {"name": "block5a_project_bn/beta", "shape": [120], "dtype": "float32"}, {"name": "block5a_project_bn/moving_mean", "shape": [120], "dtype": "float32"}, {"name": "block5a_project_bn/moving_variance", "shape": [120], "dtype": "float32"}, {"name": "block5b_expand_conv/kernel", "shape": [1, 1, 120, 720], "dtype": "float32"}, {"name": "block5b_expand_bn/gamma", "shape": [720], "dtype": "float32"}, {"name": "block5b_expand_bn/beta", "shape": [720], "dtype": "float32"}, {"name": "block5b_expand_bn/moving_mean", "shape": [720], "dtype": "float32"}, {"name": "block5b_expand_bn/moving_variance", "shape": [720], "dtype": "float32"}, {"name": "block5b_dwconv2/depthwise_kernel", "shape": [3, 3, 720, 1], "dtype": "float32"}, {"name": "block5b_bn/gamma", "shape": [720], "dtype": "float32"}, {"name": "block5b_bn/beta", "shape": [720], "dtype": "float32"}, {"name": "block5b_bn/moving_mean", "shape": [720], "dtype": "float32"}, {"name": "block5b_bn/moving_variance", "shape": [720], "dtype": "float32"}, {"name": "block5b_se_reduce/kernel", "shape": [1, 1, 720, 30], "dtype": "float32"}, {"name": "block5b_se_reduce/bias", "shape": [30], "dtype": "float32"}, {"name": "block5b_se_expand/kernel", "shape": [1, 1, 30, 720], "dtype": "float32"}, {"name": "block5b_se_expand/bias", "shape": [720], "dtype": "float32"}, {"name": "block5b_project_conv/kernel", "shape": [1, 1, 720, 120], "dtype": "float32"}, {"name": "block5b_project_bn/gamma", "shape": [120], "dtype": "float32"}, {"name": "block5b_project_bn/beta", "shape": [120], "dtype": "float32"}, {"name": "block5b_project_bn/moving_mean", "shape": [120], "dtype": "float32"}, {"name": "block5b_project_bn/moving_variance", "shape": [120], "dtype": "float32"}, {"name": "block5c_expand_conv/kernel", "shape": [1, 1, 120, 720], "dtype": "float32"}, {"name": "block5c_expand_bn/gamma", "shape": [720], "dtype": "float32"}, {"name": "block5c_expand_bn/beta", "shape": [720], "dtype": "float32"}, {"name": "block5c_expand_bn/moving_mean", "shape": [720], "dtype": "float32"}, {"name": "block5c_expand_bn/moving_variance", "shape": [720], "dtype": "float32"}, {"name": "block5c_dwconv2/depthwise_kernel", "shape": [3, 3, 720, 1], "dtype": "float32"}, {"name": "block5c_bn/gamma", "shape": [720], "dtype": "float32"}, {"name": "block5c_bn/beta", "shape": [720], "dtype": "float32"}, {"name": "block5c_bn/moving_mean", "shape": [720], "dtype": "float32"}, {"name": "block5c_bn/moving_variance", "shape": [720], "dtype": "float32"}, {"name": "block5c_se_reduce/kernel", "shape": [1, 1, 720, 30], "dtype": "float32"}, {"name": "block5c_se_reduce/bias", "shape": [30], "dtype": "float32"}, {"name": "block5c_se_expand/kernel", "shape": [1, 1, 30, 720], "dtype": "float32"}, {"name": "block5c_se_expand/bias", "shape": [720], "dtype": "float32"}, {"name": "block5c_project_conv/kernel", "shape": [1, 1, 720, 120], "dtype": "float32"}, {"name": "block5c_project_bn/gamma", "shape": [120], "dtype": "float32"}, {"name": "block5c_project_bn/beta", "shape": [120], "dtype": "float32"}, {"name": "block5c_project_bn/moving_mean", "shape": [120], "dtype": "float32"}, {"name": "block5c_project_bn/moving_variance", "shape": [120], "dtype": "float32"}, {"name": "block5d_expand_conv/kernel", "shape": [1, 1, 120, 720], "dtype": "float32"}, {"name": "block5d_expand_bn/gamma", "shape": [720], "dtype": "float32"}, {"name": "block5d_expand_bn/beta", "shape": [720], "dtype": "float32"}, {"name": "block5d_expand_bn/moving_mean", "shape": [720], "dtype": "float32"}, {"name": "block5d_expand_bn/moving_variance", "shape": [720], "dtype": "float32"}, {"name": "block5d_dwconv2/depthwise_kernel", "shape": [3, 3, 720, 1], "dtype": "float32"}, {"name": "block5d_bn/gamma", "shape": [720], "dtype": "float32"}, {"name": "block5d_bn/beta", "shape": [720], "dtype": "float32"}, {"name": "block5d_bn/moving_mean", "shape": [720], "dtype": "float32"}, {"name": "block5d_bn/moving_variance", "shape": [720], "dtype": "float32"}, {"name": "block5d_se_reduce/kernel", "shape": [1, 1, 720, 30], "dtype": "float32"}, {"name": "block5d_se_reduce/bias", "shape": [30], "dtype": "float32"}, {"name": "block5d_se_expand/kernel", "shape": [1, 1, 30, 720], "dtype": "float32"}, {"name": "block5d_se_expand/bias", "shape": [720], "dtype": "float32"}, {"name": "block5d_project_conv/kernel", "shape": [1, 1, 720, 120], "dtype": "float32"}, {"name": "block5d_project_bn/gamma", "shape": [120], "dtype": "float32"}, {"name": "block5d_project_bn/beta", "shape": [120], "dtype": "float32"}, {"name": "block5d_project_bn/moving_mean", "shape": [120], "dtype": "float32"}, {"name": "block5d_project_bn/moving_variance", "shape": [120], "dtype": "float32"}, {"name": "block5e_expand_conv/kernel", "shape": [1, 1, 120, 720], "dtype": "float32"}, {"name": "block5e_expand_bn/gamma", "shape": [720], "dtype": "float32"}, {"name": "block5e_expand_bn/beta", "shape": [720], "dtype": "float32"}, {"name": "block5e_expand_bn/moving_mean", "shape": [720], "dtype": "float32"}, {"name": "block5e_expand_bn/moving_variance", "shape": [720], "dtype": "float32"}, {"name": "block5e_dwconv2/depthwise_kernel", "shape": [3, 3, 720, 1], "dtype": "float32"}, {"name": "block5e_bn/gamma", "shape": [720], "dtype": "float32"}, {"name": "block5e_bn/beta", "shape": [720], "dtype": "float32"}, {"name": "block5e_bn/moving_mean", "shape": [720], "dtype": "float32"}, {"name": "block5e_bn/moving_variance", "shape": [720], "dtype": "float32"}, {"name": "block5e_se_reduce/kernel", "shape": [1, 1, 720, 30], "dtype": "float32"}, {"name": "block5e_se_reduce/bias", "shape": [30], "dtype": "float32"}, {"name": "block5e_se_expand/kernel", "shape": [1, 1, 30, 720], "dtype": "float32"}, {"name": "block5e_se_expand/bias", "shape": [720], "dtype": "float32"}, {"name": "block5e_project_conv/kernel", "shape": [1, 1, 720, 120], "dtype": "float32"}, {"name": "block5e_project_bn/gamma", "shape": [120], "dtype": "float32"}, {"name": "block5e_project_bn/beta", "shape": [120], "dtype": "float32"}, {"name": "block5e_project_bn/moving_mean", "shape": [120], "dtype": "float32"}, {"name": "block5e_project_bn/moving_variance", "shape": [120], "dtype": "float32"}, {"name": "block5f_expand_conv/kernel", "shape": [1, 1, 120, 720], "dtype": "float32"}, {"name": "block5f_expand_bn/gamma", "shape": [720], "dtype": "float32"}, {"name": "block5f_expand_bn/beta", "shape": [720], "dtype": "float32"}, {"name": "block5f_expand_bn/moving_mean", "shape": [720], "dtype": "float32"}, {"name": "block5f_expand_bn/moving_variance", "shape": [720], "dtype": "float32"}, {"name": "block5f_dwconv2/depthwise_kernel", "shape": [3, 3, 720, 1], "dtype": "float32"}, {"name": "block5f_bn/gamma", "shape": [720], "dtype": "float32"}, {"name": "block5f_bn/beta", "shape": [720], "dtype": "float32"}, {"name": "block5f_bn/moving_mean", "shape": [720], "dtype": "float32"}, {"name": "block5f_bn/moving_variance", "shape": [720], "dtype": "float32"}, {"name": "block5f_se_reduce/kernel", "shape": [1, 1, 720, 30], "dtype": "float32"}, {"name": "block5f_se_reduce/bias", "shape": [30], "dtype": "float32"}, {"name": "block5f_se_expand/kernel", "shape": [1, 1, 30, 720], "dtype": "float32"}, {"name": "block5f_se_expand/bias", "shape": [720], "dtype": "float32"}, {"name": "block5f_project_conv/kernel", "shape": [1, 1, 720, 120], "dtype": "float32"}, {"name": "block5f_project_bn/gamma", "shape": [120], "dtype": "float32"}, {"name": "block5f_project_bn/beta", "shape": [120], "dtype": "float32"}, {"name": "block5f_project_bn/moving_mean", "shape": [120], "dtype": "float32"}, {"name": "block5f_project_bn/moving_variance", "shape": [120], "dtype": "float32"}, {"name": "block6a_expand_conv/kernel", "shape": [1, 1, 120, 720], "dtype": "float32"}, {"name": "block6a_expand_bn/gamma", "shape": [720], "dtype": "float32"}, {"name": "block6a_expand_bn/beta", "shape": [720], "dtype": "float32"}, {"name": "block6a_expand_bn/moving_mean", "shape": [720], "dtype": "float32"}, {"name": "block6a_expand_bn/moving_variance", "shape": [720], "dtype": "float32"}, {"name": "block6a_dwconv2/depthwise_kernel", "shape": [3, 3, 720, 1], "dtype": "float32"}, {"name": "block6a_bn/gamma", "shape": [720], "dtype": "float32"}, {"name": "block6a_bn/beta", "shape": [720], "dtype": "float32"}, {"name": "block6a_bn/moving_mean", "shape": [720], "dtype": "float32"}, {"name": "block6a_bn/moving_variance", "shape": [720], "dtype": "float32"}, {"name": "block6a_se_reduce/kernel", "shape": [1, 1, 720, 30], "dtype": "float32"}, {"name": "block6a_se_reduce/bias", "shape": [30], "dtype": "float32"}, {"name": "block6a_se_expand/kernel", "shape": [1, 1, 30, 720], "dtype": "float32"}, {"name": "block6a_se_expand/bias", "shape": [720], "dtype": "float32"}, {"name": "block6a_project_conv/kernel", "shape": [1, 1, 720, 208], "dtype": "float32"}, {"name": "block6a_project_bn/gamma", "shape": [208], "dtype": "float32"}, {"name": "block6a_project_bn/beta", "shape": [208], "dtype": "float32"}, {"name": "block6a_project_bn/moving_mean", "shape": [208], "dtype": "float32"}, {"name": "block6a_project_bn/moving_variance", "shape": [208], "dtype": "float32"}, {"name": "block6b_expand_conv/kernel", "shape": [1, 1, 208, 1248], "dtype": "float32"}, {"name": "block6b_expand_bn/gamma", "shape": [1248], "dtype": "float32"}, {"name": "block6b_expand_bn/beta", "shape": [1248], "dtype": "float32"}, {"name": "block6b_expand_bn/moving_mean", "shape": [1248], "dtype": "float32"}, {"name": "block6b_expand_bn/moving_variance", "shape": [1248], "dtype": "float32"}, {"name": "block6b_dwconv2/depthwise_kernel", "shape": [3, 3, 1248, 1], "dtype": "float32"}, {"name": "block6b_bn/gamma", "shape": [1248], "dtype": "float32"}, {"name": "block6b_bn/beta", "shape": [1248], "dtype": "float32"}, {"name": "block6b_bn/moving_mean", "shape": [1248], "dtype": "float32"}, {"name": "block6b_bn/moving_variance", "shape": [1248], "dtype": "float32"}, {"name": "block6b_se_reduce/kernel", "shape": [1, 1, 1248, 52], "dtype": "float32"}, {"name": "block6b_se_reduce/bias", "shape": [52], "dtype": "float32"}, {"name": "block6b_se_expand/kernel", "shape": [1, 1, 52, 1248], "dtype": "float32"}, {"name": "block6b_se_expand/bias", "shape": [1248], "dtype": "float32"}, {"name": "block6b_project_conv/kernel", "shape": [1, 1, 1248, 208], "dtype": "float32"}, {"name": "block6b_project_bn/gamma", "shape": [208], "dtype": "float32"}, {"name": "block6b_project_bn/beta", "shape": [208], "dtype": "float32"}, {"name": "block6b_project_bn/moving_mean", "shape": [208], "dtype": "float32"}, {"name": "block6b_project_bn/moving_variance", "shape": [208], "dtype": "float32"}, {"name": "block6c_expand_conv/kernel", "shape": [1, 1, 208, 1248], "dtype": "float32"}, {"name": "block6c_expand_bn/gamma", "shape": [1248], "dtype": "float32"}, {"name": "block6c_expand_bn/beta", "shape": [1248], "dtype": "float32"}, {"name": "block6c_expand_bn/moving_mean", "shape": [1248], "dtype": "float32"}, {"name": "block6c_expand_bn/moving_variance", "shape": [1248], "dtype": "float32"}, {"name": "block6c_dwconv2/depthwise_kernel", "shape": [3, 3, 1248, 1], "dtype": "float32"}, {"name": "block6c_bn/gamma", "shape": [1248], "dtype": "float32"}, {"name": "block6c_bn/beta", "shape": [1248], "dtype": "float32"}, {"name": "block6c_bn/moving_mean", "shape": [1248], "dtype": "float32"}, {"name": "block6c_bn/moving_variance", "shape": [1248], "dtype": "float32"}, {"name": "block6c_se_reduce/kernel", "shape": [1, 1, 1248, 52], "dtype": "float32"}, {"name": "block6c_se_reduce/bias", "shape": [52], "dtype": "float32"}, {"name": "block6c_se_expand/kernel", "shape": [1, 1, 52, 1248], "dtype": "float32"}, {"name": "block6c_se_expand/bias", "shape": [1248], "dtype": "float32"}, {"name": "block6c_project_conv/kernel", "shape": [1, 1, 1248, 208], "dtype": "float32"}, {"name": "block6c_project_bn/gamma", "shape": [208], "dtype": "float32"}, {"name": "block6c_project_bn/beta", "shape": [208], "dtype": "float32"}, {"name": "block6c_project_bn/moving_mean", "shape": [208], "dtype": "float32"}, {"name": "block6c_project_bn/moving_variance", "shape": [208], "dtype": "float32"}, {"name": "block6d_expand_conv/kernel", "shape": [1, 1, 208, 1248], "dtype": "float32"}, {"name": "block6d_expand_bn/gamma", "shape": [1248], "dtype": "float32"}, {"name": "block6d_expand_bn/beta", "shape": [1248], "dtype": "float32"}, {"name": "block6d_expand_bn/moving_mean", "shape": [1248], "dtype": "float32"}, {"name": "block6d_expand_bn/moving_variance", "shape": [1248], "dtype": "float32"}, {"name": "block6d_dwconv2/depthwise_kernel", "shape": [3, 3, 1248, 1], "dtype": "float32"}, {"name": "block6d_bn/gamma", "shape": [1248], "dtype": "float32"}, {"name": "block6d_bn/beta", "shape": [1248], "dtype": "float32"}, {"name": "block6d_bn/moving_mean", "shape": [1248], "dtype": "float32"}, {"name": "block6d_bn/moving_variance", "shape": [1248], "dtype": "float32"}, {"name": "block6d_se_reduce/kernel", "shape": [1, 1, 1248, 52], "dtype": "float32"}, {"name": "block6d_se_reduce/bias", "shape": [52], "dtype": "float32"}, {"name": "block6d_se_expand/kernel", "shape": [1, 1, 52, 1248], "dtype": "float32"}, {"name": "block6d_se_expand/bias", "shape": [1248], "dtype": "float32"}, {"name": "block6d_project_conv/kernel", "shape": [1, 1, 1248, 208], "dtype": "float32"}, {"name": "block6d_project_bn/gamma", "shape": [208], "dtype": "float32"}, {"name": "block6d_project_bn/beta", "shape": [208], "dtype": "float32"}, {"name": "block6d_project_bn/moving_mean", "shape": [208], "dtype": "float32"}, {"name": "block6d_project_bn/moving_variance", "shape": [208], "dtype": "float32"}, {"name": "block6e_expand_conv/kernel", "shape": [1, 1, 208, 1248], "dtype": "float32"}, {"name": "block6e_expand_bn/gamma", "shape": [1248], "dtype": "float32"}, {"name": "block6e_expand_bn/beta", "shape": [1248], "dtype": "float32"}, {"name": "block6e_expand_bn/moving_mean", "shape": [1248], "dtype": "float32"}, {"name": "block6e_expand_bn/moving_variance", "shape": [1248], "dtype": "float32"}, {"name": "block6e_dwconv2/depthwise_kernel", "shape": [3, 3, 1248, 1], "dtype": "float32"}, {"name": "block6e_bn/gamma", "shape": [1248], "dtype": "float32"}, {"name": "block6e_bn/beta", "shape": [1248], "dtype": "float32"}, {"name": "block6e_bn/moving_mean", "shape": [1248], "dtype": "float32"}, {"name": "block6e_bn/moving_variance", "shape": [1248], "dtype": "float32"}, {"name": "block6e_se_reduce/kernel", "shape": [1, 1, 1248, 52], "dtype": "float32"}, {"name": "block6e_se_reduce/bias", "shape": [52], "dtype": "float32"}, {"name": "block6e_se_expand/kernel", "shape": [1, 1, 52, 1248], "dtype": "float32"}, {"name": "block6e_se_expand/bias", "shape": [1248], "dtype": "float32"}, {"name": "block6e_project_conv/kernel", "shape": [1, 1, 1248, 208], "dtype": "float32"}, {"name": "block6e_project_bn/gamma", "shape": [208], "dtype": "float32"}, {"name": "block6e_project_bn/beta", "shape": [208], "dtype": "float32"}, {"name": "block6e_project_bn/moving_mean", "shape": [208], "dtype": "float32"}, {"name": "block6e_project_bn/moving_variance", "shape": [208], "dtype": "float32"}, {"name": "block6f_expand_conv/kernel", "shape": [1, 1, 208, 1248], "dtype": "float32"}, {"name": "block6f_expand_bn/gamma", "shape": [1248], "dtype": "float32"}, {"name": "block6f_expand_bn/beta", "shape": [1248], "dtype": "float32"}, {"name": "block6f_expand_bn/moving_mean", "shape": [1248], "dtype": "float32"}, {"name": "block6f_expand_bn/moving_variance", "shape": [1248], "dtype": "float32"}, {"name": "block6f_dwconv2/depthwise_kernel", "shape": [3, 3, 1248, 1], "dtype": "float32"}, {"name": "block6f_bn/gamma", "shape": [1248], "dtype": "float32"}, {"name": "block6f_bn/beta", "shape": [1248], "dtype": "float32"}, {"name": "block6f_bn/moving_mean", "shape": [1248], "dtype": "float32"}, {"name": "block6f_bn/moving_variance", "shape": [1248], "dtype": "float32"}, {"name": "block6f_se_reduce/kernel", "shape": [1, 1, 1248, 52], "dtype": "float32"}, {"name": "block6f_se_reduce/bias", "shape": [52], "dtype": "float32"}, {"name": "block6f_se_expand/kernel", "shape": [1, 1, 52, 1248], "dtype": "float32"}, {"name": "block6f_se_expand/bias", "shape": [1248], "dtype": "float32"}, {"name": "block6f_project_conv/kernel", "shape": [1, 1, 1248, 208], "dtype": "float32"}, {"name": "block6f_project_bn/gamma", "shape": [208], "dtype": "float32"}, {"name": "block6f_project_bn/beta", "shape": [208], "dtype": "float32"}, {"name": "block6f_project_bn/moving_mean", "shape": [208], "dtype": "float32"}, {"name": "block6f_project_bn/moving_variance", "shape": [208], "dtype": "float32"}, {"name": "block6g_expand_conv/kernel", "shape": [1, 1, 208, 1248], "dtype": "float32"}, {"name": "block6g_expand_bn/gamma", "shape": [1248], "dtype": "float32"}, {"name": "block6g_expand_bn/beta", "shape": [1248], "dtype": "float32"}, {"name": "block6g_expand_bn/moving_mean", "shape": [1248], "dtype": "float32"}, {"name": "block6g_expand_bn/moving_variance", "shape": [1248], "dtype": "float32"}, {"name": "block6g_dwconv2/depthwise_kernel", "shape": [3, 3, 1248, 1], "dtype": "float32"}, {"name": "block6g_bn/gamma", "shape": [1248], "dtype": "float32"}, {"name": "block6g_bn/beta", "shape": [1248], "dtype": "float32"}, {"name": "block6g_bn/moving_mean", "shape": [1248], "dtype": "float32"}, {"name": "block6g_bn/moving_variance", "shape": [1248], "dtype": "float32"}, {"name": "block6g_se_reduce/kernel", "shape": [1, 1, 1248, 52], "dtype": "float32"}, {"name": "block6g_se_reduce/bias", "shape": [52], "dtype": "float32"}, {"name": "block6g_se_expand/kernel", "shape": [1, 1, 52, 1248], "dtype": "float32"}, {"name": "block6g_se_expand/bias", "shape": [1248], "dtype": "float32"}, {"name": "block6g_project_conv/kernel", "shape": [1, 1, 1248, 208], "dtype": "float32"}, {"name": "block6g_project_bn/moving_mean", "shape": [208], "dtype": "float32"}, {"name": "block6g_project_bn/moving_variance", "shape": [208], "dtype": "float32"}, {"name": "block6h_expand_bn/moving_mean", "shape": [1248], "dtype": "float32"}, {"name": "block6h_expand_bn/moving_variance", "shape": [1248], "dtype": "float32"}, {"name": "block6h_bn/moving_mean", "shape": [1248], "dtype": "float32"}, {"name": "block6h_bn/moving_variance", "shape": [1248], "dtype": "float32"}, {"name": "block6h_project_bn/moving_mean", "shape": [208], "dtype": "float32"}, {"name": "block6h_project_bn/moving_variance", "shape": [208], "dtype": "float32"}, {"name": "block6i_expand_bn/moving_mean", "shape": [1248], "dtype": "float32"}, {"name": "block6i_expand_bn/moving_variance", "shape": [1248], "dtype": "float32"}, {"name": "block6i_bn/moving_mean", "shape": [1248], "dtype": "float32"}, {"name": "block6i_bn/moving_variance", "shape": [1248], "dtype": "float32"}, {"name": "block6i_project_bn/moving_mean", "shape": [208], "dtype": "float32"}, {"name": "block6i_project_bn/moving_variance", "shape": [208], "dtype": "float32"}, {"name": "block6j_expand_bn/moving_mean", "shape": [1248], "dtype": "float32"}, {"name": "block6j_expand_bn/moving_variance", "shape": [1248], "dtype": "float32"}, {"name": "block6j_bn/moving_mean", "shape": [1248], "dtype": "float32"}, {"name": "block6j_bn/moving_variance", "shape": [1248], "dtype": "float32"}, {"name": "block6j_project_bn/moving_mean", "shape": [208], "dtype": "float32"}, {"name": "block6j_project_bn/moving_variance", "shape": [208], "dtype": "float32"}, {"name": "top_bn/moving_mean", "shape": [1408], "dtype": "float32"}, {"name": "top_bn/moving_variance", "shape": [1408], "dtype": "float32"}]}]}